tensorflow/lite/micro/examples/mnist/models/mnist_float.tflite (tflite, 903508 bytes, 8 tensors)

arith.constant f4 [64]
0	0xbd3c429b	-0.045961957
1	0xbdc5238e	-0.09625922
2	0xbe422916	-0.18960986
3	0xbcc44552	-0.023958836
4	0xbd53d31b	-0.051714998
5	0xbe120fd4	-0.1426385
6	0xbe0212e9	-0.12702526
7	0xbe681519	-0.22664298
8	0xbd30f092	-0.043198176
9	0xbd855786	-0.065108344
10	0xbe1ce8fa	-0.15323249
11	0xbe081699	-0.1328987
12	0xbe06a700	-0.13149643
13	0xbe07d02d	-0.13263007
14	0xbdc95bdc	-0.09831974
15	0xbdc5396d	-0.09630094
16	0xbe198de3	-0.14995532
17	0xbd994cbc	-0.07485339
18	0xbdd0aa0f	-0.10188686
19	0xbd8ad795	-0.067794
20	0xbded78fc	-0.115953416
21	0xbd878a6e	-0.066182
22	0xbd829f42	-0.06378032
23	0xbd6b806d	-0.057495523
24	0xbd778474	-0.06042905
25	0xbda507b6	-0.08058111
26	0xbe630c3f	-0.2217264
27	0xbb830e36	-0.003999497
28	0xbdf3445e	-0.118782744
29	0xbdb8d353	-0.09024682
30	0x3c8b58bb	0.017010083
31	0xbd25aebc	-0.040449843
32	0xbe217e0a	-0.15770736
33	0xbd89a464	-0.06720808
34	0xbe1b8459	-0.15187205
35	0xbcfc18a4	-0.030773468
36	0xbc584208	-0.013199337
37	0xbe082629	-0.13295807
38	0xbda017fd	-0.078170754
39	0xbd060531	-0.032719795
40	0xbd7504d8	-0.059819072
41	0xbdc37749	-0.09544236
42	0xbe1e4061	-0.15454246
43	0xbd57bd57	-0.052670803
44	0xbc742249	-0.014900752
45	0xbe005d75	-0.12535651
46	0xbd3f67f9	-0.046730015
47	0xbd97b8ff	-0.07408332
48	0xbca2b146	-0.019859921
49	0x3bc6cf53	0.0060671954
50	0xbe3aaeb4	-0.18230706
51	0xbdd4d2f9	-0.10391802
52	0xbdf72297	-0.12067144
53	0xbd818080	-0.063233376
54	0x39488b32	0.0001912534
55	0xbd8772ef	-0.06613719
56	0xbde89065	-0.11355666
57	0xbd8ffe05	-0.07030872
58	0xbdeefdda	-0.11669512
59	0xbd515a40	-0.05111146
60	0xbd2ecf95	-0.042678434
61	0x3ce21def	0.027602164
62	0xbe28a39c	-0.16468662
63	0xbdb79d61	-0.089655645

arith.constant1 f4 [64, 3, 3, 32]
0	0x3e16ba86	0.1471959
1	0x3e34d312	0.17658642
2	0x3db13592	0.08652796
3	0x3d019fc2	0.031646498
4	0x3d0c9448	0.0343211
5	0x3e290200	0.16504669
6	0xbe8a406f	-0.27002284
7	0x3e5337f0	0.20626807
8	0x3e06b250	0.13153958
9	0x3e0770e7	0.13226663
10	0x3e5aa9f3	0.21353893
11	0x3e1646f9	0.14675511
12	0x3d6dac36	0.05802556
13	0xbd6b0b83	-0.057384025
14	0x3d53a779	0.051673386
15	0xbe87005e	-0.26367468
16	0x3ddec2f5	0.10877029
17	0xbd6aa5bd	-0.057286967
18	0xbe1e7aed	-0.1547658
19	0xbd8c4eaa	-0.068509415
20	0xbdb9dd93	-0.09075465
21	0x3ceb7182	0.028740648
22	0x3dc074b8	0.09397262
23	0xbdc63679	-0.096783586
24	0x3e005b72	0.12534884
25	0x3b049423	0.0020229898
26	0x3e0ece2a	0.13945833
27	0x3e7bd442	0.24592689
28	0x3da52c5c	0.080651015
29	0xbc0416a5	-0.0080620395
30	0x3e2668a0	0.16250849
31	0xbe64c222	-0.22339681
32	0xbe07e10c	-0.13269442
33	0x3e392c73	0.18083362
34	0x3e07edab	0.13274257
35	0xbe13ffb4	-0.14453012
36	0x3aaa83df	0.0013009271
37	0xbe8ade08	-0.2712252
38	0x3c183dba	0.0092920605
39	0x3da85509	0.08219344
40	0x3cf06fa5	0.029350111
41	0x3df2e351	0.118597634
42	0xbd26fe42	-0.040769823
43	0xbe01ea16	-0.12686953
44	0x3daab20e	0.083347425
45	0x3cf2cb87	0.029638065
46	0xbdfd73ea	-0.123756245
47	0xbed00b39	-0.40633562
48	0xbe30b88f	-0.17257904
49	0xbe2bade4	-0.16765553
50	0xbcabb7fe	-0.020961758
51	0x3d9d697d	0.07686136
52	0xbe1300bc	-0.14355749
53	0x3e7249cd	0.23660965
54	0x3eba1b90	0.36349154
55	0x3d7bf097	0.06150874
56	0xbcf001fc	-0.029297821
57	0x3e435ef1	0.19079186
58	0x3c78cd83	0.015185717
59	0x3dcda14e	0.10040532
60	0x3cfe68e6	0.031055879
61	0xbda6d1f4	-0.08145514
62	0x3d175bb5	0.036952693
63	0xbc010b4b	-0.007876228
64	0x3e35ef38	0.17767036
65	0xbd45f59a	-0.048329927
66	0xbc051158	-0.008121811
67	0xbc4613da	-0.012089694
68	0x3d1e9a03	0.038721096
69	0xbe04c5b0	-0.12966037
70	0xbe31ddd0	-0.17369771
71	0x3e66f99e	0.22556159
72	0x3df9996e	0.121874675
73	0x3d574fe6	0.05256643
74	0x3d045c11	0.032314364
75	0xbd134393	-0.035953116
76	0xbbcca54b	-0.0062452904
77	0xbe6ee5c2	-0.23329833
78	0xbdc45668	-0.09586793
79	0x3daef242	0.08542301
80	0xbe6007e6	-0.21878013
81	0x3dceab49	0.10091264
82	0xbe3c971e	-0.18417022
83	0xbddc39ef	-0.107532375
84	0xbe5f679e	-0.2181687
85	0x3d98d3a0	0.07462239
86	0x3d896b6d	0.06709943
87	0x3d5c0bee	0.053722315
88	0xbcf11a02	-0.029431347
89	0xbc24bec7	-0.0100552505
90	0x3dcf40dc	0.10119793
91	0x3d61bf45	0.05511405
92	0x3e7993d9	0.24372806
93	0xbd93c3cb	-0.07215079
94	0xbc9edd46	-0.01939262
95	0xbd162e57	-0.036665287
96	0xbcda8ccf	-0.02667847
97	0x3b930988	0.00448722
98	0x3b813223	0.0039427443
99	0x3d8495ba	0.064738706
100	0xbe44bbd7	-0.1921228
101	0xbe768826	-0.24075374
102	0x3e289a7d	0.16465183
103	0xbdf5558e	-0.11979209
104	0x3d7a2ac4	0.06107594
105	0xbd1eee37	-0.038801398
106	0xbe7f3555	-0.24922688
107	0x3d2bc66e	0.041937284
108	0x3cbe8ac6	0.023259532
109	0x3daa9c14	0.08330551
110	0x3e346f29	0.17620529
111	0xbe143522	-0.14473394
112	0x3c945675	0.018107632
113	0xbed71843	-0.42010698
114	0x3d51f064	0.051254645
115	0xbd14b71a	-0.03630743
116	0x3dff68ec	0.12471184
117	0x3e0a312d	0.13495322
118	0xbd1c2590	-0.03812176
119	0xbdc02875	-0.093827166
120	0xbdc3e7a0	-0.09565663
121	0x3dc0a7d7	0.09407013
122	0x3cdb320b	0.02675726
123	0xbe4afca1	-0.19822933
124	0xb9b71315	-0.00034918697
125	0x3e40c176	0.188238
126	0xbeb82780	-0.35967636
127	0xbdbc31cd	-0.09189186
128	0xbee609ec	-0.44929445
129	0xbe101c3d	-0.14073272
130	0xbd551d89	-0.05203012
131	0x3d02b8e5	0.03191461
132	0xbe15c2a3	-0.1462503
133	0xbece8ea1	-0.40343192
134	0xbbffa7d3	-0.0078019886
135	0xbdd2d141	-0.10293818
136	0xbba61161	-0.0050679897
137	0xbdd4df0e	-0.10394107
138	0xbd6d180c	-0.05788426
139	0xbe8f1e70	-0.2795291
140	0xbcf968e8	-0.030445531
141	0x3d9e8007	0.07739263
142	0xbdaad8c6	-0.083421275
143	0xbe583abb	-0.21116154
144	0xbdd97a20	-0.106189966
145	0xbe5651d2	-0.2092965
146	0x3d3dd1d5	0.04634269
147	0x3bfb9345	0.007677468
148	0x3d882e53	0.06649461
149	0x3cc66c06	0.024221431
150	0xbd16ff3b	-0.0368645
151	0x3b9c826a	0.0047762888
152	0xbe82b37f	-0.2552757
153	0x3e1f8252	0.15577057
154	0xbd78b8f5	-0.060723264
155	0xbd7c3f8f	-0.06158405
156	0xbb46b60d	-0.0030320913
157	0x3dbd9dce	0.092586145
158	0xbc79ec4d	-0.015254092
159	0x3c04cc2f	0.008105322
160	0xbe79f671	-0.24410416
161	0xbec8845e	-0.39163488
162	0x3c98c32f	0.018647758
163	0x3b0aa797	0.002115702
164	0xbe1726ac	-0.14760846
165	0xbe6a6e0c	-0.22893542
166	0x3d8c48a8	0.068497956
167	0x3eb27294	0.3485304
168	0x3dd9cd90	0.10634911
169	0xbd3a04d4	-0.04541476
170	0xbcb8e370	-0.022569388
171	0xbe862e1c	-0.26207054
172	0xbc28a5ef	-0.010293468
173	0x3c385420	0.011250526
174	0xbd9694be	-0.07352589
175	0x3d10e289	0.03537229
176	0xbd041d00	-0.03225422
177	0xbe271ab8	-0.16318786
178	0x3e02bdc3	0.12767701
179	0x3dd2791f	0.10277008
180	0x3d9fe4cb	0.07807311
181	0x3dae43df	0.08509039
182	0xbe5dac90	-0.21647859
183	0x3da02176	0.07818882
184	0xbe33c127	-0.1755415
185	0xbd1c3e79	-0.038145516
186	0x3da2e885	0.07954506
187	0x3dd5ec02	0.104454055
188	0x3e1e53e5	0.1546169
189	0xbdee98d5	-0.11650244
190	0xbdb2becb	-0.08727797
191	0xbcead2f8	-0.02866505
192	0xbe5da884	-0.21646315
193	0x3e125884	0.14291579
194	0x3d24f529	0.040272865
195	0xbe023358	-0.12714899
196	0xbdba38bd	-0.09092853
197	0xbe9771c0	-0.29578972
198	0x3e1eb1e3	0.15497546
199	0x3d880418	0.06641406
200	0x3d50be87	0.05096295
201	0xbdbac15f	-0.09118914
202	0xbced5f86	-0.028976213
203	0xbdb9bb04	-0.090688735
204	0x3cd45b64	0.025922485
205	0x3d83d560	0.064371824
206	0x3e1c6561	0.15273048
207	0x3ca0b5a3	0.019617861
208	0xbe37b628	-0.17940581
209	0xbd2df98f	-0.042474326
210	0x3d9bf0dd	0.076143004
211	0x3d19b3dc	0.037525043
212	0x3e0d7cc6	0.13817129
213	0xbdb86f9e	-0.09005664
214	0x3dfda456	0.1238486
215	0x3c2ff3a7	0.010739244
216	0xbe2c3a10	-0.16819024
217	0x3d3554ea	0.044270433
218	0xbe0923ba	-0.13392535
219	0xbd42c18b	-0.04754786
220	0xbe1413f6	-0.1446074
221	0xbdec02f6	-0.11524002
222	0xbd8b8156	-0.06811778
223	0x3d63df85	0.055633087
224	0xbe8f66d3	-0.28008136
225	0x3b46f387	0.0030357556
226	0xbd105ebc	-0.035246596
227	0xbd986aff	-0.07442283
228	0x3d686d21	0.0567447
229	0xbd7c3aea	-0.061579622
230	0x3e5ebd0a	0.217518
231	0xbe552fb6	-0.20818982
232	0xbd7ad51c	-0.061238393
233	0x3d0154c8	0.031574994
234	0xbe4ab297	-0.19794689
235	0xbec9e597	-0.39432976
236	0x3db67034	0.0890812
237	0x3e0b951f	0.13631104
238	0x3dab1c09	0.08354957
239	0x3d391b31	0.045191947
240	0xbe46c103	-0.19409566
241	0x3c92ab3f	0.017903922
242	0xbca2bda7	-0.019865824
243	0x3ddb3fee	0.10705553
244	0x3d9b11f4	0.07571784
245	0xbc7bf65a	-0.015378559
246	0x3d6fe79e	0.058570497
247	0xbdfbd71a	-0.12296887
248	0xbe12f14a	-0.14349857
249	0xbc7d07aa	-0.015443722
250	0xbd0d3763	-0.03447665
251	0xbe376bc8	-0.17912209
252	0xbe1f1942	-0.15536979
253	0xbe0442b4	-0.1291607
254	0xbe11e122	-0.14246038
255	0x3e1d8579	0.15382947

arith.constant2 f4 [10, 128]
0	0x3e27b604	0.16378027
1	0x3dc0f7ad	0.094222404
2	0xbdfd97b7	-0.12382453
3	0xbcdb64b8	-0.026781425
4	0xbe641c83	-0.22276501
5	0xbd680afa	-0.056651093
6	0xbee1a821	-0.44073585
7	0xbd5c43f5	-0.053775746
8	0xbbb956c2	-0.0056560943
9	0xbdb6603c	-0.08905074
10	0xbddfb615	-0.10923401
11	0xbe376ce1	-0.17912628
12	0x3e8d22b6	0.27565545
13	0x3d553e09	0.052061114
14	0xbed2afa7	-0.41149637
15	0x3d9a1b9b	0.075247966
16	0x3d0ace8c	0.033888385
17	0xbef8c0bd	-0.48584548
18	0xbe28ec22	-0.16496328
19	0xbe2bd0bb	-0.16778843
20	0x3d90456c	0.07044491
21	0xbe943f19	-0.2895439
22	0xbe3b6c76	-0.18303093
23	0xbed16350	-0.40896082
24	0xbdb440b0	-0.08801401
25	0xbe0f646b	-0.1400315
26	0xbd6787c6	-0.056525968
27	0xbe116eaa	-0.14202371
28	0x3d432ca7	0.047650006
29	0x3e5be33d	0.21473403
30	0xbd547613	-0.051870417
31	0x3d9048a5	0.07045106
32	0xbd2956aa	-0.041342415
33	0x3e5991d6	0.21247038
34	0xbe2697e8	-0.16268885
35	0x3e0093d2	0.12556389
36	0x3e6d79da	0.23191014
37	0xbdbb2cd7	-0.09139412
38	0xbe148e81	-0.14507486
39	0x3e2b5ccc	0.16734618
40	0x3e3c52d7	0.18390976
41	0x3e04ee0a	0.1298143
42	0x3eba3396	0.36367482
43	0x3e8a83fa	0.27053815
44	0xbe6d5457	-0.23176704
45	0x3e31ac23	0.17350821
46	0x3d1ff5f4	0.03905292
47	0x3d92631e	0.07147811
48	0x3e8b58a9	0.2721608
49	0xbe240f2f	-0.16021417
50	0xbe885446	-0.26626796
51	0xbdaa97f8	-0.08329767
52	0xbe9db7b4	-0.30804217
53	0x3e52b991	0.205786
54	0xbe00bdb1	-0.12572362
55	0xbe15e356	-0.14637503
56	0x3e2e8f5b	0.17046873
57	0xbd8f35b8	-0.06992668
58	0x3c8de331	0.017320247
59	0xbe5a7a72	-0.21335772
60	0xbe8d5e7b	-0.27611145
61	0x3e8da006	0.2766115
62	0x3e7d3a67	0.2472931
63	0x3e1e4683	0.15456586
64	0x3cdfafd4	0.027305521
65	0x3e3397e5	0.17538412
66	0xbe0a9a37	-0.13535391
67	0xbdaa2f01	-0.083097465
68	0x3dfb9a95	0.122853436
69	0x3dde78dd	0.108628966
70	0x3e16f92d	0.1474349
71	0xbebecb4c	-0.37264478
72	0x3e8a811a	0.27051622
73	0x3dcfca4f	0.10146009
74	0x3d8ad17b	0.067782365
75	0x3e080cce	0.13286135
76	0x3e2161a8	0.15759909
77	0xbe8adcc8	-0.27121568
78	0xbe8d50ab	-0.27600607
79	0xbeb42b92	-0.35189492
80	0xbc36bead	-0.011153859
81	0xbeaad654	-0.33366644
82	0x3dc29a84	0.09502128
83	0xbda9f333	-0.0829834
84	0xbdba1769	-0.090864964
85	0x3e0d4b67	0.13798295
86	0x3e5bc75a	0.21462765
87	0xbcf49f7a	-0.0298612
88	0xbe7d1faf	-0.24719118
89	0xbd34dd0a	-0.04415611
90	0xbd11de32	-0.035612293
91	0xbe71fb2c	-0.2363097
92	0xbeb35c27	-0.35031244
93	0x3e3728e4	0.17886692
94	0x3e2fa1ae	0.1715152
95	0xbe8c2e71	-0.27379182
96	0xbe3ab79b	-0.18234102
97	0xbe4cc56b	-0.19997184
98	0x3d6fbfee	0.058532648
99	0x3eb2cf84	0.34923947
100	0x3e38e50e	0.18056127
101	0x3d9f04d0	0.0776459
102	0x3e4c5b5d	0.19956727
103	0xbe7ad617	-0.24495731
104	0xbec61cb0	-0.38693762
105	0x3e02106a	0.12701574
106	0xbe5d06db	-0.21584646
107	0xbe912a29	-0.28352478
108	0x3e5a30a9	0.21307625
109	0x3e4d0f3c	0.20025343
110	0x3e73ab04	0.23795706
111	0xbe2717c4	-0.1631766
112	0x3e269601	0.1626816
113	0xbbb2be87	-0.0054548415
114	0xbe4d99ef	-0.20078252
115	0xbdc0a0d8	-0.094056785
116	0xbe918292	-0.2841993
117	0x3b8175b8	0.0039508007
118	0x3c2fad12	0.0107224155
119	0xbca71d8a	-0.020399828
120	0xbed780ed	-0.4209055
121	0x3dd55200	0.10416031
122	0x3e7fc795	0.24978478
123	0xbefd280d	-0.4944462
124	0xbd4b68cf	-0.0496605
125	0xbec18373	-0.377956
126	0xbe223f28	-0.15844405
127	0xbd460c69	-0.04835168
128	0x3e28b3c9	0.16474833
129	0xbea678ab	-0.32513937
130	0xbe2bf1e8	-0.16791499
131	0x3dd38a0a	0.10329063
132	0x3bc02648	0.0058639385
133	0x3d689142	0.056779154
134	0x3db328c2	0.08748008
135	0x3e039205	0.12848671
136	0xbe809a37	-0.25117657
137	0x3de8f23a	0.11374326
138	0xbe147459	-0.14497508
139	0xbe256ac4	-0.16154009
140	0xbeaee6c8	-0.34160447
141	0xbd0b6801	-0.034034733
142	0xbeb6e747	-0.35723326
143	0xbe004909	-0.1252786
144	0x3eb0e3ab	0.34548697
145	0x3e13fc0f	0.14451621
146	0x3df78956	0.120867416
147	0xbe8a94ef	-0.27066752
148	0xbe0e3dde	-0.13890788
149	0xbe3d6dd6	-0.1849893
150	0x3e89b568	0.26896214
151	0x3e5229ec	0.20523804
152	0x3d63d166	0.05561962
153	0x3dcd098e	0.10011588
154	0x3e0e360d	0.13887806
155	0x3e3b156e	0.18269894
156	0x3e03269b	0.12807696
157	0x3e0467b4	0.12930185
158	0x3ea0769b	0.3134049
159	0x3da736b7	0.08164733
160	0x3dc8e369	0.09809
161	0xbe314453	-0.1731122
162	0x3d2e7d7b	0.042600136
163	0x3e89d4e6	0.2692024
164	0xbe3c5023	-0.18389945
165	0xbd3fb5a7	-0.046804097
166	0x3e9bfd81	0.30466846
167	0x3d52d256	0.051470123
168	0x3db885c5	0.090098895
169	0xbc948b35	-0.018132785
170	0x3e3cc56b	0.18434684
171	0x3e881747	0.2658026
172	0xbdb20913	-0.08693137
173	0xbe16632e	-0.14686272
174	0xbe11876c	-0.14211816
175	0x3d503321	0.05083001
176	0xbeb5c4f2	-0.3550182
177	0xbe8cc389	-0.2749293
178	0x3e60f200	0.21967316
179	0xbeafbc1a	-0.34323198
180	0x3e139225	0.14411218
181	0xbe5181b6	-0.20459637
182	0xbe594172	-0.21216372
183	0x3e64f16d	0.22357722
184	0x3e449e00	0.19200897
185	0x3cdf1934	0.027233697
186	0xbd43695f	-0.04770791
187	0xbe8dd721	-0.27703193
188	0xbe8956f2	-0.26824147
189	0x3e7aa1c6	0.24475774
190	0xbcbfd1f9	-0.023415552
191	0xbd4ad0af	-0.049515422
192	0xbe7f8d87	-0.24956332
193	0x3d9d3b37	0.0767731
194	0xbcf090e0	-0.029365957
195	0xbcb46157	-0.022019072
196	0xbe2b3615	-0.1671985
197	0x3d58fe17	0.052976694
198	0x3db4feac	0.08837637
199	0x3d74c721	0.059760217
200	0xbeb0c35d	-0.3452405
201	0xbe20c05a	-0.15698376
202	0xbe2691e1	-0.16266586
203	0xbdd36d31	-0.10323561
204	0x3e480982	0.19534877
205	0x3e5586ab	0.20852153
206	0xbe8b7d3e	-0.2724399
207	0x3e895489	0.26822308
208	0x3c40f745	0.011777704
209	0xbda34507	-0.0797215
210	0xbe74bf05	-0.23900993
211	0x3bf142c0	0.0073626935
212	0xbe9159b0	-0.2838874
213	0xbe1daeb2	-0.15398672
214	0xbe123763	-0.14278941
215	0x3df103e3	0.117683195
216	0x3e40ff7f	0.18847464
217	0x3d6f23fd	0.05838393
218	0x3e0e9a59	0.13926066
219	0x3e464e98	0.19365919
220	0x3df42ff8	0.11923212
221	0x3dad071e	0.08448623
222	0xbedf540d	-0.43618813
223	0xbd070ba9	-0.032970104
224	0x3e27cbaa	0.16386285
225	0x3e1961cb	0.14978711
226	0xbf050639	-0.5196262
227	0x3dde3834	0.10850564
228	0x3dafbc00	0.0858078
229	0x3e352391	0.17689349
230	0x3b508110	0.0031815208
231	0x3dba16b6	0.09086363
232	0xbde0825c	-0.10962364
233	0xbda4ab08	-0.08040434
234	0xbf0ecda7	-0.5578255
235	0x3e153e88	0.14574635
236	0xbc991b4a	-0.01868977
237	0xbe557176	-0.20844063
238	0x3da6ec81	0.08150578
239	0xbd0c4816	-0.034248434
240	0x3e8f9a35	0.28047338
241	0x3e94b6a2	0.29045588
242	0x3da6e405	0.0814896
243	0xbe298d1e	-0.16557738
244	0x3e6110d5	0.21979077
245	0x3e68ac6a	0.22722021
246	0x3e482a4a	0.19547382
247	0x3d895d59	0.06707258
248	0x3e190530	0.14943385
249	0xbd52359e	-0.051320665
250	0x3e56ddb8	0.20983016
251	0xbe143f19	-0.14477195
252	0x3dff834f	0.12476217
253	0xbe111956	-0.14169821
254	0xbe0ecf8d	-0.13946362
255	0xbe21857d	-0.15773578

arith.constant3 f4 [128, 1600]
0	0xba54a4b1	-0.0008111699
1	0x3e7d37a5	0.24728258
2	0xbcfc0e58	-0.030768558
3	0x3d95d74d	0.07316456
4	0xbdf0bb4a	-0.117544726
5	0x3c297634	0.010343123
6	0x3b0b1003	0.002121926
7	0x3d09142f	0.033466514
8	0xbdb291f0	-0.087192416
9	0x3bf98eea	0.0076159136
10	0xbd238025	-0.03991713
11	0x3df9d024	0.12197903
12	0x3d04467e	0.03229379
13	0x3d6d6866	0.05796089
14	0xbd436f58	-0.047713608
15	0x3dc65652	0.09684433
16	0xbd0bafd6	-0.034103237
17	0x3c84675a	0.016162563
18	0x3deed29f	0.116612665
19	0x3d51e78b	0.051246207
20	0xbd47da76	-0.048792325
21	0x3e228c8d	0.15873928
22	0x3def8bb6	0.116965696
23	0xbc621947	-0.013799972
24	0x3e0e061c	0.13869518
25	0x3d79f795	0.06102713
26	0xbd9d8b45	-0.07692579
27	0x3d15e1fe	0.036592476
28	0x3d0adc08	0.033901244
29	0x3d99ebd5	0.075156845
30	0x3d192ee3	0.03739823
31	0x3e8f4f2a	0.27990085
32	0x3dc37087	0.09542947
33	0xbe40f51f	-0.18843506
34	0xbb0aca74	-0.00211778
35	0x3ed503a5	0.41604343
36	0x3c8a27ba	0.016864646
37	0x3c942be0	0.018087327
38	0xbd8eb7be	-0.0696864
39	0xbd48600f	-0.048919734
40	0xbb4cf658	-0.0031274762
41	0xbdcb2faa	-0.099212006
42	0xbc584c21	-0.013201744
43	0xbd418cf2	-0.047253557
44	0xbd635701	-0.055502895
45	0xbc141ca6	-0.009040033
46	0x3dbb9cda	0.091607764
47	0xbd11936d	-0.035540987
48	0xbdb1c669	-0.08680422
49	0x3e2da2c4	0.16956621
50	0x3ca1891a	0.019718695
51	0x3cdc355e	0.026880916
52	0xbbdc0508	-0.006714467
53	0x3de9c470	0.114144206
54	0x3d70afa4	0.058761254
55	0xbda0b96c	-0.078478664
56	0x3d80c9ae	0.06288467
57	0x3cc6616f	0.024216382
58	0x3cf77268	0.03020592
59	0x3d8233df	0.0635755
60	0x3db84b94	0.089987904
61	0xbda0d9dc	-0.078540534
62	0x3d84a013	0.06475844
63	0x3d9c58cb	0.076341234
64	0x3e221870	0.15829635
65	0x3dfb96bf	0.12284612
66	0xbdb71d92	-0.08941187
67	0x3e1cc261	0.15308525
68	0x3d068379	0.032840226
69	0xbd9977e2	-0.07493569
70	0xbd3c0d59	-0.045911167
71	0xbd9e1662	-0.07719113
72	0x3c34107c	0.010990258
73	0xbd04600b	-0.032318156
74	0x3bc07532	0.005873346
75	0x3ea5d41f	0.32388398
76	0x3c104cd7	0.008807383
77	0x3cb74999	0.022373961
78	0xbd326c67	-0.04356041
79	0x3d8a7b28	0.067617714
80	0xbc9473f1	-0.018121691
81	0x3ddc0f84	0.10745147
82	0xbdb3533c	-0.0875611
83	0xbc9da084	-0.019241579
84	0xbd0b38e0	-0.033989787
85	0x3ce9321a	0.028466273
86	0xbc273845	-0.010206287
87	0x3e77c1fb	0.24195091
88	0x3e5803de	0.21095225
89	0xbd66fa77	-0.056391206
90	0xbc4575e3	-0.012052032
91	0x3d70f649	0.058828626
92	0x3d03b2f3	0.03215308
93	0xbd85ce4d	-0.065334894
94	0xbd66f1b9	-0.05638287
95	0x3c12b9da	0.008955443
96	0xbd77d6ca	-0.060507573
97	0xbc1d1031	-0.00958638
98	0x3d89d0c3	0.06729271
99	0x3d02ff93	0.031982016
100	0x3d0dad3d	0.03458904
101	0xbce358c0	-0.02775228
102	0xbd16abfa	-0.036785103
103	0xbdf44194	-0.119265705
104	0xbd4beec9	-0.04978827
105	0xbd5eb8a8	-0.05437532
106	0x3c73ead7	0.014887533
107	0xbcb2cb49	-0.02182545
108	0xbd76da08	-0.060266525
109	0x3d9a0fcd	0.07522545
110	0xbde4acea	-0.11165793
111	0xbd57b716	-0.05266484
112	0xbd5ff6df	-0.054678794
113	0xbd353762	-0.04424227
114	0xbb0ec36e	-0.0021783966
115	0x3d680fa0	0.056655526
116	0xbd0c75a4	-0.03429188
117	0x3e141ef5	0.14464934
118	0x3d99cce8	0.07509786
119	0x3ce356ea	0.027751405
120	0x3c08538b	0.008320699
121	0xbdd6a462	-0.10480572
122	0x3dcd14f1	0.1001376
123	0x3ca17945	0.019711146
124	0x3cb6387d	0.022243733
125	0xbd84f439	-0.06491894
126	0x3df8e948	0.1215387
127	0x3e2fb7b1	0.17159916
128	0x3dabd66f	0.08390509
129	0xbd5eab41	-0.05436254
130	0xbe56cecc	-0.20977324
131	0x3e10c272	0.14136675
132	0x3d63eb2b	0.055644196
133	0x3dda2dee	0.10653292
134	0x3ba42aaa	0.0050099688
135	0xbda1f733	-0.07908478
136	0x3e75c56f	0.24001096
137	0x3c12f0ca	0.008968541
138	0x3d1883e7	0.037235167
139	0xbccd7597	-0.025080485
140	0x3d4189f9	0.04725072
141	0x3e0e999b	0.13925783
142	0xbdbfce24	-0.0936549
143	0xbd9760c9	-0.07391507
144	0x3b7f5bb0	0.0038964562
145	0x3cd820e3	0.02638287
146	0x3d88b3ee	0.06674944
147	0x3d117d4a	0.035519876
148	0xbd1ee790	-0.038795054
149	0x3c892ef2	0.016746018
150	0x3d4aa484	0.0494733
151	0x3d91bd34	0.07116166
152	0x3e402b5d	0.18766542
153	0xbe22f6cf	-0.15914463
154	0xbe30cc3f	-0.17265414
155	0xbd36c475	-0.04462095
156	0x3d446c65	0.047954936
157	0x3e0c6127	0.13708936
158	0x3bba8aa9	0.005692799
159	0xbe010f0d	-0.12603398
160	0xbcbcc821	-0.023044648
161	0x3dd3907e	0.10330294
162	0xbdd30956	-0.10304515
163	0x3d851702	0.06498529
164	0xbd97d435	-0.07413522
165	0x3d4395f1	0.047750417
166	0x3cc04d02	0.02347422
167	0x3e350aec	0.17679948
168	0xbe1afe51	-0.15136077
169	0x3e2da0b9	0.16955842
170	0x3e167bac	0.14695615
171	0xbdd783c5	-0.1052318
172	0x3e14b3db	0.14521734
173	0x3e35ad45	0.17741878
174	0xbe88cb34	-0.26717532
175	0x3e536a97	0.2064613
176	0xbcda948d	-0.026682163
177	0xbd2ba22d	-0.04190271
178	0x3c8a646c	0.016893588
179	0xbdef6bbb	-0.1169047
180	0x3dd4833c	0.103765935
181	0xbc15ed30	-0.009150788
182	0xbd7d4fa1	-0.06184352
183	0x3d4d27ad	0.050086666
184	0x3d682ee0	0.05668533
185	0xbd14e0ca	-0.036347188
186	0x3de44ebe	0.111478314
187	0x3d050980	0.032479763
188	0xbc4d5309	-0.012532004
189	0x3e1fbc0f	0.15599082
190	0x3e066085	0.13122757
191	0x3ddd8ef4	0.10818282
192	0x3e1987c4	0.14993197
193	0x3c719057	0.014743886
194	0xbd9d0eea	-0.0766886
195	0x3d03b18c	0.032151744
196	0xbdc80c98	-0.09768027
197	0x3e1d460f	0.15358756
198	0xbbc3b39c	-0.005972339
199	0x3df04176	0.11731236
200	0xb794a916	-1.7721712e-05
201	0x3e2c516c	0.16827935
202	0xbcc4f98a	-0.02404477
203	0xbd031d26	-0.03201022
204	0xbccc39d2	-0.024929915
205	0x3e29431a	0.16529503
206	0x3c43baa0	0.01194635
207	0x3c7ee2a7	0.015556968
208	0x3d9f175f	0.077681296
209	0x3e49c7c7	0.19705115
210	0x3d8a603a	0.06756635
211	0x3ddfd970	0.10930145
212	0x3dbea1a3	0.093081735
213	0xbdbb9d92	-0.091609135
214	0xbb774f27	-0.0037736387
215	0x3e00b33f	0.12568377
216	0xbc75f59d	-0.015012172
217	0xbd3bcd30	-0.04584998
218	0xbe027497	-0.12739788
219	0xbe0a7a79	-0.13523282
220	0x3e309aad	0.17246504
221	0x3e4902d0	0.19629979
222	0xbe2ab9bc	-0.16672415
223	0xbd84e760	-0.06489444
224	0x3e04dbe4	0.12974507
225	0xbcc1b052	-0.023643646
226	0xbe00f744	-0.12594324
227	0x3d874633	0.06605186
228	0xbe8af8cc	-0.27142942
229	0x3dda491d	0.106584765
230	0x3de19036	0.11013834
231	0xbdd92141	-0.10602046
232	0x3d90f79c	0.07078478
233	0x3e33936e	0.17536709
234	0xbc714824	-0.014726672
235	0x3d004ac1	0.03132129
236	0xbe8ea366	-0.27859038
237	0x3d0a81f3	0.033815335
238	0x3e539541	0.20662405
239	0x3c273d55	0.010207494
240	0x3de59b90	0.11211312
241	0xbdefbdf2	-0.11706151
242	0x3dd3ebb1	0.10347689
243	0xbd961965	-0.07329062
244	0xbd689225	-0.05678
245	0xbe133d18	-0.14378774
246	0xbd366576	-0.044530354
247	0x3d2bbaef	0.04192632
248	0xbc1bcd98	-0.009509467
249	0xbceeb556	-0.029139202
250	0x3d8eb9dc	0.069690436
251	0x3e049e39	0.12950982
252	0xbd442fa0	-0.04789698
253	0xbcab67f5	-0.020923594
254	0x3dbdf574	0.09275332
255	0xbdc20802	-0.094741836

arith.constant4 f4 [128]
0	0x3d3cc30a	0.04608444
1	0xbd640750	-0.055671036
2	0xbc06ce19	-0.008227848
3	0x3d3b1275	0.0456719
4	0xbc7f5082	-0.015583159
5	0xbd9b91bf	-0.07596158
6	0x3d31f4a9	0.043446217
7	0x3d8e3479	0.06943602
8	0xbd18974c	-0.037253663
9	0xbd2abbb6	-0.04168292
10	0xbc8f6301	-0.017503263
11	0xbd07b5ca	-0.033132352
12	0x3b7c7665	0.0038522717
13	0xbd8f0ab0	-0.0698446
14	0xbd2adb6d	-0.041713167
15	0xbc333eef	-0.0109402975
16	0x3d20db99	0.039271925
17	0xbcfe683b	-0.03105556
18	0xbcf983da	-0.03045838
19	0xbd2428fc	-0.04007815
20	0xbc06ea25	-0.008234535
21	0x3b7eda2b	0.0038887362
22	0xbc86344a	-0.016382355
23	0x3acf3779	0.0015809379
24	0x3cee14dc	0.02906268
25	0xbc6d36fc	-0.014478441
26	0xbda39efe	-0.0798931
27	0xbc128359	-0.0089424485
28	0xbcc798ea	-0.024364907
29	0x3c0c17d3	0.008550602
30	0x3c1b2bd5	0.0094709
31	0x3d401ece	0.046904378
32	0x3d87cdde	0.06631063
33	0xbc0f9239	-0.00876289
34	0x3d7ef55d	0.062245715
35	0x3d30a2f2	0.043124147
36	0x3d2c5a56	0.04207834
37	0xbc0ddb4b	-0.008658241
38	0x3d050d86	0.0324836
39	0xbc82eb58	-0.015981361
40	0xbcea6359	-0.028611826
41	0xb9cb3d3a	-0.00038764795
42	0x3da0c564	0.07850149
43	0x3d8ae6dc	0.06782314
44	0xbd678171	-0.05651993
45	0xbd1e6810	-0.03867346
46	0xbd46d4d3	-0.04854281
47	0x3cb97897	0.02264051
48	0xbd5310c0	-0.051529646
49	0xbdc3b246	-0.09555487
50	0x3d4afc81	0.049557213
51	0xbdf122aa	-0.1177419
52	0x3cd34584	0.025789984
53	0xbda452a8	-0.08023578
54	0xbcb57329	-0.02214964
55	0xbccf4a23	-0.025303906
56	0x3dd7697c	0.105181664
57	0xbd4c16c9	-0.049826417
58	0xbd0470a5	-0.03233399
59	0xbc46b591	-0.01212825
60	0xbda85ade	-0.082204565
61	0x3dcb6f5c	0.099333495
62	0x3d394bdc	0.04523836
63	0xbb1430d7	-0.0022612119
64	0xbd82786d	-0.06370626
65	0xbc009ccc	-0.007849883
66	0xbcf48ca3	-0.029852217
67	0x3b1dffc1	0.002410874
68	0xbcee64ee	-0.029100861
69	0x3d2407e9	0.040046606
70	0xbc25f64c	-0.0101295225
71	0xbca8f04b	-0.020622393
72	0xbd74f163	-0.059800517
73	0xbd994a17	-0.07484835
74	0xbc1189ca	-0.008882949
75	0xbc48e006	-0.012260443
76	0xbd1b6ff4	-0.037948564
77	0xbcf3f724	-0.029780932
78	0xbd6fc719	-0.058539484
79	0x3d81a936	0.063311026
80	0x3d385fa6	0.045013092
81	0x3d37b777	0.0448527
82	0xbc8031d0	-0.015648752
83	0xbd9b1947	-0.07573181
84	0xbda091f4	-0.07840338
85	0xbda080ec	-0.0783709
86	0xbca7a1a6	-0.020462822
87	0xbd96bbb1	-0.07360018
88	0xbc6625a7	-0.014047063
89	0x3b8e41ac	0.004341325
90	0xbc7752cf	-0.015095427
91	0xbc2ebbb9	-0.010664874
92	0x3c6bee08	0.014400013
93	0x3cd4ac70	0.02596113
94	0xbd37d759	-0.044883106
95	0x3c058194	0.00814857
96	0xbc760ffe	-0.015018461
97	0x3d5ae092	0.053436823
98	0xbd9496c6	-0.0725532
99	0xbd9ef72b	-0.07761987
100	0xbd07ddf3	-0.03317065
101	0x3d2d8426	0.042362355
102	0xbd185447	-0.03718975
103	0xbd192a0d	-0.03739362
104	0xbb9b98d2	-0.004748442
105	0xbd3f1b23	-0.04665674
106	0xbda6638c	-0.08124456
107	0xbd111efe	-0.035429947
108	0xbcc6561b	-0.02421098
109	0xbd35445a	-0.04425464
110	0xbcc80347	-0.024415625
111	0xbd3d3626	-0.046194218
112	0x3d4c69e7	0.049905684
113	0xbd79528d	-0.060869742
114	0x3d37e7b1	0.044898693
115	0xbcebfb7b	-0.028806439
116	0x3d303b59	0.04302535
117	0x3d4a3cde	0.049374454
118	0x3b93c032	0.0045089955
119	0xbcdbde24	-0.026839323
120	0xbcfce0ff	-0.030869005
121	0xbd65ff0f	-0.056151446
122	0x3d9306d2	0.07179035
123	0xbd4e562f	-0.05037516
124	0xbc7caec0	-0.015422523
125	0xbd0b77d6	-0.03404983
126	0xbca2f40d	-0.019891763
127	0xbd0ab338	-0.033862323

arith.constant5 f4 [10]
0	0x3d4dd5a2	0.050252564
1	0x3d8e3740	0.06944132
2	0x3bcdd673	0.006281668
3	0xbbbc288e	-0.005742139
4	0x3c192ef4	0.009349573
5	0xbcf839f0	-0.030301064
6	0xbd4fbf4e	-0.05071955
7	0x3be0b948	0.0068580247
8	0x3d87839e	0.06616901
9	0xbdcd65c9	-0.100291796

sequential_1/conv2d_1/convolution f4 [32, 3, 3, 1]
0	0xbe20f047	-0.15716659
1	0xbe3b8d32	-0.1831558
2	0x3e4cad90	0.19988084
3	0xbe796683	-0.24355511
4	0xbd22195f	-0.039574977
5	0x3e2db34f	0.16962932
6	0xbe1bf64b	-0.15230672
7	0xbc875b22	-0.016522948
8	0x3e73125c	0.23737472
9	0x3d5e44aa	0.054264702
10	0xbe3532c4	-0.17695147
11	0xbed0aacc	-0.40755308
12	0x3e83131d	0.2560052
13	0xbd31141f	-0.04323208
14	0xbec0db18	-0.37667155
15	0x3e8faeb6	0.2806298
16	0x3ea18958	0.31550097
17	0x3ace1b7f	0.0015724747
18	0xbc15e18f	-0.009148016
19	0xbd25d364	-0.0404848
20	0x3e0bd49c	0.13655323
21	0x3e1037b4	0.14083749
22	0xbe00a05f	-0.12561177
23	0xbe15f408	-0.14643872
24	0x3bdcb7b5	0.006735767
25	0xbe19b60e	-0.15010855
26	0xbd1b8649	-0.03796986
27	0x3c9caef3	0.019126391
28	0xbe7e6f0b	-0.24847047
29	0xbe6c2c84	-0.23063856
30	0x3e570b54	0.21000415
31	0x3e54375d	0.20724244
32	0x3e65e7d7	0.22451721
33	0xbe0d7784	-0.13815123
34	0xbdf5befa	-0.119993165
35	0xbc616735	-0.013757517
36	0x3d0c652e	0.03427618
37	0xbdb2e1cd	-0.08734474
38	0xbeb7cece	-0.35899967
39	0xbd3763c1	-0.044772867
40	0xbd9755e8	-0.07389432
41	0xbcee85c9	-0.029116528
42	0x3cf86f09	0.030326383
43	0x3ea180f5	0.315437
44	0x3e8f662d	0.2800764
45	0x3cf7559d	0.03019219
46	0xbf092c06	-0.535828
47	0xbd4e06be	-0.0502994
48	0xbf0936f1	-0.5359946
49	0xbd874d64	-0.06606558
50	0x3ea554b6	0.32291192
51	0xbecbe000	-0.39819336
52	0x3e25ee81	0.16204263
53	0x3e397eb4	0.1811474
54	0x3e580ecf	0.21099399
55	0x3e278000	0.16357422
56	0x3e91ab9f	0.2845125
57	0xbdb44b79	-0.08803458
58	0x3c4d720c	0.012539398
59	0x3d9842de	0.07434629
60	0xbeccb6b5	-0.39983144
61	0xbeb439b7	-0.35200283
62	0xbe7510d8	-0.23932207
63	0xbed8385d	-0.42230502
64	0xbc63d331	-0.013905332
65	0x3daad080	0.083405495
66	0x3e6b32a3	0.22968535
67	0x3e8e331c	0.27773368
68	0x3d69894d	0.057015706
69	0x3d7f55cf	0.062337693
70	0xbd84f2b8	-0.064916074
71	0xbee74e24	-0.45176804
72	0xbdae96cf	-0.08524858
73	0x3da27c30	0.07933843
74	0xbd4ff451	-0.050770108
75	0x3d53058f	0.051518973
76	0x3d9cf263	0.07663419
77	0xbc8b75ec	-0.017024003
78	0xbd027514	-0.031849936
79	0x3ca860ab	0.020553907
80	0xbe633d6e	-0.22191402
81	0x3e34302d	0.17596503
82	0x3da87d85	0.08227066
83	0x3d641104	0.05568029
84	0x3e99564d	0.29948655
85	0x3b6f8d63	0.003655278
86	0xbe8b9616	-0.27262944
87	0x3e3c74a7	0.18403874
88	0xbe922588	-0.2854426
89	0xbdff24a9	-0.12458164
90	0xbe2cb0de	-0.16864344
91	0xbdabdc42	-0.0839162
92	0xbe3d32c8	-0.18476403
93	0xbe246cac	-0.1605708
94	0x3d11aa0b	0.035562556
95	0x3dbc072c	0.091810554
96	0x3e280e27	0.16411649
97	0xbc89857e	-0.016787287
98	0x3e1fc2c7	0.15601645
99	0xbe8a8ffb	-0.27062973
100	0xbe164ed8	-0.14678514
101	0x3e4c18d3	0.19931345
102	0xbed8de55	-0.42357126
103	0x3e3b5953	0.18295793
104	0x3e74c042	0.23901466
105	0xbe5232f8	-0.20527256
106	0xbe335a09	-0.17514814
107	0x3e2e3667	0.1701294
108	0x3d0a97ec	0.03383629
109	0xbdf8e06f	-0.12152182
110	0xbe347021	-0.17620899
111	0x3d40174d	0.04689722
112	0x3d023635	0.031789977
113	0xbe776663	-0.24160151
114	0xbd965276	-0.07339947
115	0x3d3e2b8a	0.04642824
116	0x3dc015ca	0.09379156
117	0x3caba06c	0.020950519
118	0x3dccecf5	0.100061335
119	0x3e3434ce	0.17598268
120	0x3d2c0b77	0.04200312
121	0x3d662504	0.056187645
122	0x3e3d429a	0.18482438
123	0xbebd9918	-0.37030864
124	0xbeb168b9	-0.3465021
125	0xbe5ee107	-0.21765529
126	0x3d9ac00b	0.075561605
127	0x3e0d561d	0.13802381
128	0x3e7354df	0.23762845
129	0xbe919893	-0.28436717
130	0x3e560dac	0.20903653
131	0x3e3c4fc0	0.18389797
132	0xbefd52e6	-0.4947731
133	0xbe66edb4	-0.22551614
134	0x3e6d560a	0.23177353
135	0x3ef3fdb6	0.47654504
136	0x3e00a5fd	0.1256332
137	0xbe7a293b	-0.2442979
138	0x3da44235	0.080204405
139	0xbf56e296	-0.8393949
140	0xbe5ebf2a	-0.21752611
141	0xbedb8b15	-0.4287955
142	0xbe8f1c37	-0.27951214
143	0x3e90d43b	0.2828692
144	0x3e266afd	0.1625175
145	0xbd816602	-0.063182846
146	0xbe9533b4	-0.2914101
147	0x3dce03ac	0.10059294
148	0xbbe55684	-0.006998839
149	0xbe4f9389	-0.20271124
150	0xbd9a733f	-0.07541513
151	0x3d045fd1	0.03231794
152	0xbe97ce8f	-0.2964978
153	0xbe108211	-0.14112116
154	0xbe989a53	-0.2980524
155	0xbee5c883	-0.4487954
156	0xbedee1d8	-0.4353168
157	0xbe3f6a8e	-0.18692991
158	0xbdf3b8ec	-0.119005054
159	0xbe3305bd	-0.17482658
160	0x3e084c89	0.13310446
161	0x3ec61252	0.38685852
162	0xbe127fce	-0.14306566
163	0x3abdf870	0.0014493596
164	0x3d8cf451	0.06882537
165	0x3e0632d7	0.13105331
166	0x3e146475	0.14491446
167	0x3e1e5f90	0.15466142
168	0xbd90db2e	-0.07073055
169	0xbe50615d	-0.20349641
170	0xbea57f85	-0.32323852
171	0xbd3d4dc0	-0.046216726
172	0x3e14c17d	0.14526935
173	0x3e76d38e	0.24104139
174	0x3e4f124a	0.2022182
175	0x3e239258	0.15973794
176	0xbcc7682e	-0.024341669
177	0xbe0a7758	-0.13522089
178	0xbec49993	-0.38398418
179	0xbe98af78	-0.29821372
180	0xbd9ccde2	-0.076564565
181	0x3d5b1c7a	0.053493954
182	0x3ea38794	0.31939375
183	0xbdcd2171	-0.10016144
184	0xbeae827e	-0.34083933
185	0x3dc9a3a5	0.09845666
186	0xbe4771ca	-0.19477001
187	0xbe88770d	-0.2665333
188	0xbe8a00b3	-0.26953658
189	0x3d07bf61	0.033141498
190	0x3e06c70a	0.13161865
191	0xbdb7869d	-0.08961222
192	0x3e02ebf8	0.12785327
193	0xbdcb6581	-0.0993147
194	0xbd288cc3	-0.041149866
195	0xbbf3f8e9	-0.007445444
196	0x3e01ac91	0.12663485
197	0x3d2a6a54	0.04160531
198	0xbcd4ba6a	-0.025967795
199	0x3e04a2ab	0.12952678
200	0xbdc932c1	-0.09824134
201	0x3cdbe55c	0.026842766
202	0xbda4dddd	-0.080501296
203	0xbe958d53	-0.29209384
204	0x3e41bfa2	0.18920758
205	0xbd9aefb0	-0.07565248
206	0x3e88ea04	0.2674104
207	0xbdca9864	-0.098923475
208	0x3d6945cb	0.056951325
209	0xbd778b85	-0.06043579
210	0xbd62cd11	-0.055371348
211	0xbdbf7c8a	-0.09349926
212	0xbd25bba7	-0.040462162
213	0x3d76881f	0.06018841
214	0xbcec6bc5	-0.028859982
215	0x3d78ce4c	0.060743615
216	0x3e2f735a	0.17133847
217	0x3d6847b8	0.05670902
218	0xbe443686	-0.19161424
219	0x3e7784b5	0.24171717
220	0xbbee5e9e	-0.007274463
221	0xbe34fff3	-0.17675762
222	0x3e7d8f91	0.24761797
223	0xbe10d2eb	-0.14142959
224	0xbedbb15e	-0.42908758
225	0x3ddc58da	0.107591346
226	0x3de4b932	0.11168136
227	0xbe813455	-0.2523524
228	0xbd83ef77	-0.06442159
229	0x3dd074be	0.10178517
230	0xbe23a577	-0.15981089
231	0xbc3ff4a2	-0.01171604
232	0x3d927fb0	0.07153261
233	0x3e465fee	0.19372532
234	0xbdefcb18	-0.11708659
235	0x3c061d03	0.008185628
236	0x3cb99acb	0.022656819
237	0xbc1a72a5	-0.009426747
238	0x3a10f968	0.00055303285
239	0x3d6b591a	0.05745802
240	0xbd59c9c4	-0.053170934
241	0x3dee540e	0.11637126
242	0x36d0fab5	6.228069e-06
243	0xbe2d77e7	-0.1694027
244	0xbdbb0919	-0.091325946
245	0xbd1b7e49	-0.03796223
246	0xbe1747f6	-0.14773545
247	0x3e104983	0.14090542
248	0x3e45197b	0.19248001
249	0x3d8ba310	0.06818211
250	0x3def731b	0.116918765
251	0xbddb359b	-0.10703584
252	0xbe4c22d5	-0.19935162
253	0x3db50fe3	0.08840921
254	0x3d92f1a5	0.07174996
255	0x3c9e7e81	0.019347431

sequential_1/conv2d_1/Relu;sequential_1/conv2d_1/BiasAdd;sequential_1/conv2d_1/convolution; f4 [32]
0	0xbd9cdc67	-0.07659226
1	0xbd31c30d	-0.043398906
2	0xbe25b523	-0.1618238
3	0xbd8b6e1d	-0.06808112
4	0xbd637438	-0.055530757
5	0xbbf33318	-0.0074218623
6	0x3d11400e	0.035461478
7	0xbcf53c28	-0.029935911
8	0xbe1cbcbd	-0.15306373
9	0xbdf7e131	-0.12103499
10	0xbdb3bc92	-0.08776201
11	0xbcec3847	-0.028835429
12	0xbe162655	-0.1466306
13	0xbcf358f3	-0.0297055
14	0xbd246096	-0.040131174
15	0x3d8f0c6f	0.069847934
16	0xbd355786	-0.044272922
17	0x3e064f04	0.1311608
18	0xbd998e6d	-0.07497869
19	0xbb5f247a	-0.0034048841
20	0x3c604450	0.013688162
21	0xbe575998	-0.21030271
22	0xbe02db4e	-0.1277897
23	0xbddd43f7	-0.10803979
24	0xbb9627ee	-0.0045823967
25	0xbe38b177	-0.18036447
26	0xbe5f6659	-0.21816386
27	0xbe1a4b2d	-0.1506774
28	0xbe20b976	-0.15695748
29	0xbd43f442	-0.047840364
30	0xbd2ff662	-0.04295958
31	0xbd5187ab	-0.051154774
