tensorflow/lite/micro/examples/mnist/models/mnist_float.tflite (tflite, 145520 bytes, 8 tensors)

arith.constant f4 [32]
000000 05 ad 17 be 0f b8 3a bd 28 67 0d be 31 60 31 bd
       -0.14812095 -0.04558569 -0.13808882 -0.043304626
000010 19 4f 1a be 22 17 93 bd 6c 94 fc 3a 90 6b a3 bd
       -0.15069236 -0.071821466 0.0019270307 -0.079795
000020 b0 a5 0f be 41 35 a0 bd 9a c2 e5 bd 47 b5 d6 bb
       -0.14028049 -0.078226574 -0.11218758 -0.0065523717
000030 7d 81 b2 3c 33 51 bd bc 3b a3 b5 3a 65 6b 0e be
       0.02179026 -0.023110008 0.001385785 -0.13908155
000040 fd d8 9b bd ae 8b 1f be 42 2e e8 bd 3d e4 86 3d
       -0.076097466 -0.15580627 -0.11336948 0.06586502
000050 7c 55 3c 3d 0e 39 77 bd b6 35 f2 3c d0 80 d6 bd
       0.04597996 -0.060357146 0.029566627 -0.10473788
000060 34 32 ea bd 8b 79 93 bd ce 89 04 be d9 bd 2c be
       -0.11435357 -0.07200917 -0.12943193 -0.16869296
000070 de dd 1b bd ce 58 9e be 04 ef 01 3e cb b6 72 bd
       -0.038053386 -0.30927128 0.12688833 -0.059256356

arith.constant1 f4 [32, 3, 3, 32]
000000 6f 2e 26 3e b6 a2 2d 3d 41 06 98 bd 41 0b 23 3c
       0.1622865 0.0423915 -0.07423068 0.009951414
000010 3f c6 ce bd c7 b9 14 bd 39 79 bb 3d 02 04 0a bb
       -0.10096406 -0.036309984 0.09153981 -0.0021059518
000020 c8 93 cd 3c 4a b5 ea 3d 7a 93 8a bd 9f a0 57 be
       0.025094882 0.114603594 -0.0676641 -0.21057366
000030 2e 34 b0 3d 7a 07 c5 bd 43 4a f4 bd 77 60 b8 3a
       0.086037025 -0.09620567 -0.11928227 0.0014066835
000040 09 f5 05 3d c9 11 83 3d bd be ab bd e5 2a 2c 3e
       0.032704387 0.063998766 -0.0838599 0.16813238
000050 62 22 51 3d 75 65 16 3d ea 65 8f 3d b2 57 e1 bd
       0.05105818 0.03671785 0.070018604 -0.11003055
000060 90 e0 83 bc 96 e9 99 3c e3 25 cf bc 19 8f 09 be
       -0.01609829 0.01878814 -0.02528662 -0.13433494
000070 3a 6a a2 bd 4d 88 90 3d 84 b3 6a 3d 70 91 fd bb
       -0.07930417 0.07057247 0.057300106 -0.0077382848
000080 55 f8 8e 3e 93 8d b6 bd 04 9f 64 3a c2 ff 86 bd
       0.27923837 -0.08913722 0.0008721205 -0.06591751
000090 de 07 1b bd bb 43 f3 3d d5 12 83 3d 42 69 82 3d
       -0.0378493 0.11878153 0.06400076 0.063677326
0000a0 ad 90 2b bd a8 f9 0e bc 39 35 cf bd 82 62 9e be
       -0.04188602 -0.008726515 -0.10117573 -0.3093453
0000b0 fc 1b 6c bd 06 c2 8c bd 25 70 74 be f3 80 97 3d
       -0.057643875 -0.068729445 -0.23870905 0.07397642
0000c0 8d 9d 75 bc 09 51 18 ba 20 31 08 be ea 79 8a 3c
       -0.014991176 -0.0005810415 -0.1329999 0.016903836
0000d0 a1 19 86 3d 34 ba a0 3d 60 ca 0a be 3f e9 b3 3d
       0.06547857 0.078480154 -0.13553762 0.087847225
0000e0 01 89 5d 3d b5 45 e4 3d b4 a3 98 3d 96 51 1a bd
       0.054085735 0.11146108 0.07453099 -0.037675463
0000f0 b8 93 08 be cf de 6a bc f8 e1 ed bd 5d 7d 4f bd
       -0.133376 -0.014335348 -0.11615366 -0.050656665
000100 2d 00 25 3e 94 ca 8e bd 34 a4 40 bc cd ad d6 bd
       0.16113348 -0.069722325 -0.011757899 -0.104823686
000110 8b bc fc 3c 3e ca b0 bc 16 c2 37 be c3 b7 c9 bd
       0.030851623 -0.021580812 -0.17945132 -0.09849503
000120 4c df 15 bd 5c d6 60 3e 52 18 94 bd 0b 88 17 3d
       -0.036589906 0.21956772 -0.07231201 0.036994975
000130 65 d0 be bd 46 86 2a bc 3e 19 2d 3d 2f 4f 23 bc
       -0.09317092 -0.01040799 0.0422604 -0.009967609
000140 d7 bc 49 bd 0f ff bd bd 70 6c 33 be ce a0 6f bd
       -0.049252357 -0.09277164 -0.17521834 -0.058502965
000150 73 f3 2e bd 02 1e 57 bd a6 d1 72 be 12 2a 0e 3e
       -0.04271264 -0.052518852 -0.23712787 0.13883236
000160 c6 9e 2b 3d 15 ff f8 3d 9a 69 4f be c4 35 34 be
       0.041899465 0.12158028 -0.20255128 -0.17598635
000170 da 1a 43 be b3 8c a6 3d 91 09 1c be d9 aa 9d bb
       -0.19053212 0.08132305 -0.15238024 -0.0048116264
000180 ac c2 f6 bd 59 ff 32 be b0 6e 9c 3d 9a 2d 13 3b
       -0.120488495 -0.1748022 0.076382995 0.00224576
000190 16 c5 25 3d 8b 78 80 3d 1d af 4a 3d a2 9d 6a 3d
       0.04047116 0.06272992 0.049483407 0.057279237
0001a0 81 d7 9a 3d 60 28 bc bd 13 00 a7 3c 1e e5 03 be
       0.07560635 -0.091873884 0.020385778 -0.1288037
0001b0 d9 4a 7e 3c 56 8a d2 3c 7d 4c b3 bd 74 82 a4 bd
       0.015520775 0.02570073 -0.08754823 -0.080326945
0001c0 03 b2 dc bd 51 3b f8 3c 01 d6 14 bc 08 2b d8 b9
       -0.107761405 0.030301722 -0.009084226 -0.0004123079
0001d0 45 c7 72 bb 9d 0e 0c be 49 ca 20 bd 6e b8 f9 3d
       -0.0037045043 -0.1367745 -0.039255414 0.1219338
0001e0 a7 04 bf 3d 93 67 5f be 0d 0a 27 3b 92 32 89 bd
       0.09327059 -0.21816854 0.0025488168 -0.06699099
0001f0 15 25 1a 3d d9 ca 13 bd 32 21 ef bc ed 77 95 bd
       0.03763302 -0.036082122 -0.029190633 -0.07298265
000200 1e 64 85 3d 58 91 e8 bd 2e 6e 29 3d 08 ad 3d bd
       0.065132365 -0.11355847 0.04136484 -0.046307594
000210 71 df f1 3d 15 1a c2 3d 44 73 8d 3d ad fc ca bd
       0.11810196 0.09477631 0.06906751 -0.09911475
000220 77 b1 81 3d 15 7c 3d bd 1c a8 4c bb 2b 1b a5 bd
       0.06332677 -0.046260912 -0.003122813 -0.080618225
000230 56 d5 4e 3d f9 2b 8e bc 87 fd 85 bd 51 a7 aa 3c
       0.05049642 -0.017354952 -0.06542497 0.020831736
000240 e2 bb 3c be d0 ef ae bc fb e8 6f bd 02 d3 1d be
       -0.18431047 -0.021354586 -0.058571797 -0.15412524
000250 08 ed 91 bd ed 36 c8 3a 77 26 1a be 32 16 cf 3c
       -0.07125288 0.0015275158 -0.15053736 0.025279138
000260 8f 1b ad 3c b5 fc ac bd 25 1a a0 3d 67 5a e7 3d
       0.021131305 -0.084466375 0.07817487 0.1129654
000270 64 22 a0 3a e2 a4 83 bd c8 c6 5e 3d 2b 92 c9 bc
       0.001221728 -0.06427933 0.05438879 -0.024605831
000280 61 76 00 be 63 55 fc bd a8 03 c0 3c 5e 96 95 3a
       -0.12545158 -0.12320974 0.023439243 0.0011412611
000290 74 fd 2a 3e d3 9c aa bc 43 05 9a bd 8f c5 5a 3c
       0.16698247 -0.020826733 -0.07520535 0.013352766
0002a0 c4 a8 9a bd 48 ea 88 3d 43 4e 7c 3d 57 31 19 be
       -0.07551721 0.066853106 0.061598074 -0.14960228
0002b0 d9 f2 d3 bc 21 9f 77 bd f5 e6 a7 bd b0 93 50 bc
       -0.025872635 -0.06045449 -0.081983484 -0.012730524
0002c0 b2 9c 5e be 9f 0a c4 bd 42 47 cf bd e6 1d 5a 3b
       -0.21739462 -0.09572338 -0.10121013 0.003328198
0002d0 48 c6 db bc ba 3c 9d bd b6 45 50 bd f1 69 14 3e
       -0.026827946 -0.07677598 -0.05084773 0.14493538
0002e0 63 98 1b 3e af ba db bc 54 47 72 3b 65 ee 91 3d
       0.1519485 -0.026822416 0.0036968784 0.07125548
0002f0 17 fc 0f 3d d9 47 51 3d e6 e5 d9 3c 6a f1 8b bd
       0.03515252 0.05109391 0.026598882 -0.068331555
000300 63 88 3e 3d 80 d4 1e 3e e2 2f 04 bc 9b ba 23 be
       0.046516787 0.1551075 -0.008068057 -0.15989153
000310 36 4f 16 be ac 2d 89 bd 99 ed f2 bd 22 d9 3d bd
       -0.14678654 -0.06698164 -0.118617244 -0.046349652
000320 40 06 82 3b 70 19 08 be a6 8e c5 bb 3a 43 97 bd
       0.00396803 -0.13290954 -0.006028968 -0.07385869
000330 06 5c 95 bd 7a 7a 11 3d 59 39 91 3d 18 de 2f 3e
       -0.07292943 0.035517193 0.07091016 0.17174566
000340 cb e2 0f 3e a3 26 79 bd b0 17 9a bd 12 87 90 be
       0.14051358 -0.060827862 -0.07524049 -0.2822805
000350 c2 23 d9 bc 49 8f d7 3d c7 8c 7d be c4 f0 87 bd
       -0.026506308 0.10525376 -0.24760734 -0.06637719
000360 72 02 6f be 29 29 0f 3e a2 61 91 bd f0 37 5e ba
       -0.23340777 0.13980545 -0.070987 -0.0008476963
000370 20 b4 9c bd cf 14 a9 3d e9 21 23 bd 67 09 06 3e
       -0.076515436 0.08255922 -0.03982726 0.13089524
000380 b8 17 74 3d 6a 3c d1 3d 96 73 c1 bd 96 3c 0f 3d
       0.059592932 0.10216601 -0.094458744 0.03496989
000390 a6 3e f0 bc 3e 4e 6a 3d 92 47 0c be 5d 3d 7f bc
       -0.029326748 0.057203524 -0.13699177 -0.015578595
0003a0 18 1c 80 3c e9 9b a5 bd 91 24 b2 bd b5 af f2 3d
       0.015638396 -0.08086378 -0.08698381 0.1184992
0003b0 56 a1 a1 3d 1d fa ef bd 95 0f f6 3d ad b3 f1 3d
       0.078921005 -0.11717627 0.12014691 0.118018486
0003c0 bc bd f9 3d d7 49 07 be 43 12 0a 3e 81 d3 4a be
       0.12194392 -0.13211761 0.13483529 -0.19807245
0003d0 32 4a 39 be 69 d8 cb 3d c8 92 ea bc 7f 96 0e bc
       -0.1809471 0.09953386 -0.028634444 -0.008702873
0003e0 66 18 3e bd 5f ed d9 3d 62 00 81 3d 96 9b 0a 3e
       -0.046409987 0.10640978 0.06298901 0.13535914
0003f0 16 a1 89 3d 52 70 74 bd fa c6 95 bd e5 49 ef 3d
       0.06720178 -0.05967743 -0.073133424 0.11684016

arith.constant2 f4 [10, 32]
000000 6a fe 3f bd 32 14 8a be 7b 30 a3 3e 84 e8 70 be
       -0.046873488 -0.26968533 0.31872925 -0.23526198
000010 22 cf e4 be 3d bd f0 3e 9d 22 11 3e 6f a9 04 3e
       -0.4468928 0.47019377 0.1417336 0.12955259
000020 3c 14 2e 3e bf 0e 29 be ad f5 3d 3e 2d 61 3d 3b
       0.16999906 -0.16509531 0.18550749 0.0028897033
000030 7f ea 96 3e e4 42 e6 3e 41 29 52 be dc 4f 99 be
       0.2947578 0.44972908 -0.2052355 -0.2994374
000040 84 8c 2c bf 3d 18 1f bf 8d f6 91 be 9e b7 ef be
       -0.6740191 -0.6214636 -0.28508416 -0.46819776
000050 b3 98 8a 3e 39 38 34 be 2a 19 09 bf a9 db 97 be
       0.27069625 -0.17599572 -0.5355402 -0.29659775
000060 f3 e3 ee 3d 32 8f 9f bd ff b2 90 3e 3a 91 ab 3e
       0.116645716 -0.07790984 0.28261563 0.33509237
000070 32 66 b6 3e 3b a2 2d 3e fd e7 63 be d3 c8 ee bc
       0.35624844 0.16956417 -0.22256465 -0.029148495
000080 83 6e c1 3e d0 5b 06 be c1 9c a8 be b3 7f f9 3d
       0.37779626 -0.13120961 -0.32932094 0.1218256
000090 f6 2c 68 be b0 88 65 3e 11 7c 20 be d3 e9 d7 3e
       -0.22673401 0.22415423 -0.15672328 0.4217058
0000a0 ba f9 d3 bd 7a 52 3e 3d ec a5 a4 be 72 2f 18 bd
       -0.10350366 0.046465375 -0.32157838 -0.037154622
0000b0 57 05 fb be 5f e7 da bc d2 a4 54 bd 5c 85 2b be
       -0.4902751 -0.026721654 -0.051914997 -0.16750091
0000c0 bd ed 0d 3e aa fc b2 3e 04 59 ac 3e 27 73 87 3e
       0.13860221 0.34958392 0.33661664 0.26455042
0000d0 fc 0d 8f be 1a 50 61 3e ea ac a8 3e ce 52 55 3e
       -0.27940357 0.22003213 0.32944423 0.20832369
0000e0 92 4f 84 3e e3 05 73 3c b6 1e 9e 3e cb 6e 20 bf
       0.25841957 0.0148329465 0.30882806 -0.62669057
0000f0 86 8d 55 3e 7c 48 f0 3d af b1 e6 be 38 55 3c 3d
       0.20854768 0.11732575 -0.45057437 0.04597971
000100 d0 f3 22 be 6e 75 5e 3e 61 f2 10 3e de bf f3 bc
       -0.1591332 0.21724483 0.1415496 -0.029754575
000110 ff 97 a0 3e 08 3c 67 3e 35 a7 50 3e 77 f2 cd 3e
       0.31365964 0.22581494 0.20376284 0.40224048
000120 26 e8 b5 3d 6f 71 62 3d 07 9c 8a be 6c d9 b3 be
       0.088821694 0.05528396 -0.27072164 -0.35126817
000130 81 3a fa be 6b 3a 45 3e a0 e4 03 3e c1 91 c2 be
       -0.4887276 0.19260566 0.12880182 -0.38001826
000140 14 d0 06 3f 51 0d e5 be 14 56 27 bf ee 44 a0 be
       0.5266125 -0.44736722 -0.6536572 -0.3130259
000150 ec 69 76 be a7 c1 7e 3e f8 d4 80 bd 87 af 9f be
       -0.24063843 0.2487856 -0.062906206 -0.31188604
000160 bc 6f cb 3d c7 33 dc 3e 30 f7 bc 3e 0a 41 ce 3d
       0.09933421 0.43008253 0.3690734 0.10070999
000170 93 d4 66 be d9 b6 8f 3e f3 7f 89 be 47 4b e9 bd
       -0.22542028 0.2806919 -0.2685543 -0.11391311
000180 5a 6d 8f bc 6b 0a d0 3e d0 80 d9 be f8 fc 1f be
       -0.017508198 0.40632948 -0.4248109 -0.15623844
000190 d2 cd 00 3d 69 aa e1 3e b0 34 57 be 53 06 65 be
       0.031446286 0.44075325 -0.21016192 -0.22365694
0001a0 0a 02 bf 3d 47 29 3f be 16 ac 93 bd 86 6b be 3c
       0.09326561 -0.1866809 -0.07210557 0.02324463
0001b0 fc 9a 8c bd a5 7b 4e 3e 9b 1b 93 be f8 ba 8c 3e
       -0.068654984 0.20164354 -0.28732 0.27486396
0001c0 d4 ea a3 3e 0c a6 f8 3d 4c ea 34 3e bc 8a 64 be
       0.32015097 0.12141046 0.17667502 -0.22318548
0001d0 03 d3 a5 3e db e7 05 3e e4 5c 53 be 8d ea 7c 3e
       0.32387552 0.13076727 -0.20640904 0.24698849
0001e0 f3 2e bd 3d a0 5f c9 be d2 7b 04 be 58 9a 8d be
       0.092374705 -0.3933077 -0.12937859 -0.27656817
0001f0 94 a1 ca be ed cb 25 bf b2 6a c8 3e bf 8b f1 be
       -0.395764 -0.6476429 0.39143902 -0.4717693
000200 e9 e5 d8 3b 26 a8 8a 3e cd 94 89 3e 18 b0 58 bd
       0.0066192043 0.27081412 0.26871338 -0.05290231
000210 41 43 97 3d 68 98 03 bf 66 20 ac 3e 6d 5d 14 3f
       0.073858745 -0.5140443 0.33618468 0.57955056
000220 78 c8 eb be fe 29 7c 3e 30 07 0f 3e 4f f9 6e be
       -0.46051383 0.24625394 0.13967586 -0.23337291
000230 f7 d8 04 be a8 e0 1c be 8f bc b3 3e 49 43 c4 be
       -0.1297339 -0.15320075 0.35104796 -0.38332585
000240 a1 35 cc be 62 16 9b 3e ba 32 5f be b2 db bf 3d
       -0.39884666 0.30290514 -0.21796694 0.093680754
000250 c3 af c0 3e 7b 54 2c bc 85 7c b8 be 79 e0 99 3e
       0.37634096 -0.010518189 -0.360325 0.30054072
000260 a0 ac d6 bc 9b 3b 94 bc f3 91 05 bf bd 18 f5 3d
       -0.02620536 -0.018094828 -0.52175826 0.11967609
000270 95 98 e5 bb 6b cd 77 3d bc 96 3a bf e9 04 09 3e
       -0.0070067146 0.060498636 -0.7288625 0.1338078
000280 b2 74 8c be 55 1c ad be d9 63 9f 3d fc 7b 1c 3c
       -0.2743278 -0.33810678 0.07782716 0.009551045
000290 89 06 07 bf 14 54 8a 3e 07 cb 13 3e b8 a1 41 be
       -0.52744347 0.27017272 0.14432918 -0.18909347
0002a0 59 73 c3 3d d2 d3 94 3e a4 0f 89 3e 0f d2 68 3e
       0.09543485 0.29067856 0.26769745 0.22736381
0002b0 90 15 d9 be d3 a4 eb be 14 b4 cd 3c 5c b9 51 be
       -0.42399263 -0.46024188 0.025110282 -0.20480865
0002c0 4f 80 ab 3e 0a e1 25 3e 95 0f 64 3e 5c 78 c3 3d
       0.3349633 0.16199127 0.22271569 0.09544441
0002d0 be b3 aa 3e f6 67 d5 be 15 7e d3 be 5f 7b c8 be
       0.33340257 -0.41680878 -0.4130713 -0.39156625
0002e0 95 d4 57 be 61 9a b1 3e 97 bd e9 be 36 f1 60 3e
       -0.21077187 0.34688094 -0.45652458 0.21967015
0002f0 f3 8b fc be 33 d8 d3 be bb 62 06 3e 34 49 8f 3e
       -0.49325523 -0.41375884 0.131236 0.27985537
000300 da 86 c4 bd a6 f3 ab be 96 0e 63 3e 6c 05 5d 3e
       -0.095960334 -0.33584327 0.22173533 0.215841
000310 3c 32 5f 3b f6 21 7f 3e 09 e0 d1 3c 77 11 bc 3e
       0.0034057042 0.24915299 0.025619524 0.36732075
000320 66 db 3a bc 27 27 d3 3d af 26 15 3d ea 6c ab 3d
       -0.011404848 0.10310202 0.036413845 0.08370383
000330 2e f9 81 3e 8d fe 01 be b0 b3 9f bd 3d e5 1e bf
       0.25385422 -0.1269476 -0.077979445 -0.6206854
000340 dc e7 f5 3c 08 28 88 3e 53 fb f1 3e 3c 4d 03 bf
       0.030017786 0.2659304 0.47262058 -0.51289725
000350 4d d4 15 be c2 02 35 be 86 28 38 bf 74 74 c8 be
       -0.14631768 -0.17676833 -0.71936834 -0.39151347
000360 59 41 96 be 32 e8 92 3c 3f 23 bd be 4e 9d a7 3b
       -0.2934673 0.017932985 -0.36940953 0.0051151877
000370 1b 71 1c 3f 2e c2 d3 3e bf 82 3b bd 81 47 b4 be
       0.61110085 0.41359085 -0.045778986 -0.35210803
000380 ee 07 15 3d dc 1f 28 be 3f ca b9 3e 32 b7 38 bd
       0.036384515 -0.16418403 0.36287114 -0.045096584
000390 5b 08 18 3b db 61 6d 3e 1f 27 12 3e 24 a3 83 be
       0.002319834 0.2318186 0.14272736 -0.25710404
0003a0 fa 1c 7f bd 45 b3 e2 be e0 aa 45 3e af e8 8d 3e
       -0.062283494 -0.44277397 0.19303465 0.27716586
0003b0 0c 8c d1 3e d3 1c 93 be 88 87 bd 3e 22 4e 8b be
       0.4092716 -0.2873293 0.37017465 -0.27208048
0003c0 70 73 49 be ab df aa 3e b7 79 12 bf 70 43 08 3f
       -0.19672942 0.3337377 -0.5721697 0.532279
0003d0 28 a7 a9 3e 13 02 9b be c5 a0 18 3e f1 d6 90 bd
       0.33135343 -0.3027502 0.14905079 -0.07072247
0003e0 8a cc c9 be 53 39 74 bd ac 83 11 3f 09 93 8c 3e
       -0.39413863 -0.05962498 0.5684154 0.2745593
0003f0 5d 12 e9 be c4 7b a5 be 2e c8 11 bf 5f b9 6c be
       -0.45521823 -0.32320988 -0.56946075 -0.23117588

arith.constant3 f4 [32, 800]
000000 bd fb 09 bd af d8 cd bd f2 e8 16 bd 6a 32 08 be
       -0.033687342 -0.10051095 -0.036843248 -0.13300481
000010 72 2f e8 bc 85 1a 7a be 9b 67 af ba ab fc 11 be
       -0.028342936 -0.24424179 -0.0013382317 -0.14256541
000020 58 05 b2 bd fa 19 86 bd da 56 ea 3c 0f e0 10 be
       -0.086924255 -0.065479234 0.028605867 -0.14147972
000030 6d ee ac bd ee d6 4e bd 70 ba 32 be 86 ab d1 bd
       -0.084439136 -0.05049794 -0.17453933 -0.102377936
000040 e7 ff 13 be 76 d1 f6 bc 2a c6 ea bd b0 66 a7 bc
       -0.14453088 -0.030129176 -0.11463578 -0.020434707
000050 7d 79 04 3e b0 84 1c be 73 d5 01 bd 33 8a 2e bd
       0.12936969 -0.15284991 -0.0316977 -0.042612266
000060 8a 22 fa 3b ca 59 45 be b0 ab ef bb 82 5d ef bb
       0.007633512 -0.19272533 -0.007314168 -0.007304848
000070 6d 5a a8 bd 7c 7a a2 bd 18 db 5e 3d bf 50 e0 3b
       -0.08220372 -0.07933518 0.054408163 0.006845563
000080 38 9d 8e bc f6 8b f4 bc c2 95 13 3e 0b aa 2a 3d
       -0.017408952 -0.029851895 0.14412597 0.04166607
000090 f5 e7 34 bc 1f 75 56 bd 0c ea 17 bb ec 31 49 3c
       -0.011041631 -0.05235779 -0.0023180274 0.012279969
0000a0 64 7d f7 3c 25 57 27 bc ca f1 7d 3b 6a 46 6a 3d
       0.030211158 -0.010213648 0.0038748854 0.05719606
0000b0 95 3e 85 3c 00 22 86 39 c5 34 25 3e f7 1a 96 bc
       0.016265193 0.00025583804 0.16133411 -0.018323405
0000c0 6f a5 83 bd 3d 55 b9 3d 1b 65 27 3d b9 49 51 bd
       -0.06428038 0.09049461 0.040867906 -0.051095698
0000d0 ee 06 76 bd 5f dc a8 3d 79 72 1a be 63 b3 de 3d
       -0.060065202 0.082451575 -0.1508273 0.10874059
0000e0 59 4b 8c 3d 43 91 9b bd b4 9d 07 bd 3d c9 ec bc
       0.06850309 -0.07596066 -0.03310938 -0.028904552
0000f0 53 cb 13 be e9 65 d4 3c 40 a3 1a 3e f9 a6 d8 bd
       -0.14433031 0.0259275 0.15101337 -0.105787225
000100 e7 83 ed 3d 1e 9e 80 bd f5 5f 47 3e 25 a2 1f 3d
       0.11597424 -0.062801585 0.19470198 0.038972992
000110 ff f0 ac 3c 2e df 4e bd 6d 07 19 3b bc 8b b5 3c
       0.02111101 -0.05050581 0.0023350373 0.022161357
000120 14 3a 00 3e cb 09 66 3d 24 65 7a 3d 3a 12 e9 bd
       0.12522155 0.056161683 0.06113161 -0.113804296
000130 14 c6 13 3d ba 9e 65 bd 4c 3b c9 3d b8 55 04 3c
       0.036077574 -0.056059577 0.09825763 0.008077078
000140 56 84 c3 3c 4d 7b 76 bd 47 67 2c 3d a2 93 20 3b
       0.023866814 -0.060176183 0.04209068 0.0024502059
000150 de 4b 26 3e 79 a1 fa 3a 2b 71 d4 bc ff c3 d0 3d
       0.16239879 0.0019121609 -0.025932869 0.10193633
000160 48 88 8d bd ce 90 02 3d 4f 6c d4 3d 1d 28 b9 3c
       -0.06910759 0.031876378 0.10372221 0.022602135
000170 18 f1 57 bc ab 14 45 3e bc ca 00 3e 8e a8 f3 3d
       -0.01318004 0.19246165 0.12577337 0.11897384
000180 c8 66 4a bd 05 68 a2 3c e3 e0 83 3c e8 98 c0 3c
       -0.049414426 0.019824991 0.016098445 0.023510411
000190 45 36 54 bc 6e da 06 be 44 b3 1a 3d b9 b3 5a bc
       -0.012952392 -0.13169262 0.037768617 -0.013348513
0001a0 7e 5d 26 3d 80 53 7f 3d e2 cc b7 b9 81 da cc 3d
       0.040616505 0.06233549 -0.0003505713 0.10002614
0001b0 ac b5 31 bd c8 41 37 bd 20 27 08 3e ce 5e d8 bd
       -0.043386146 -0.04474047 0.13296175 -0.105649576
0001c0 b7 2c 59 be 40 c3 1b 3c dd 67 ae 3c 79 ce 1c 3c
       -0.21208464 0.009507 0.02128976 0.009570711
0001d0 78 03 e0 bd 5a f4 2a bd 71 ae a4 bd ee c0 c1 bd
       -0.109381616 -0.041736938 -0.080410846 -0.094606265
0001e0 b6 14 b7 3c 27 0e f4 bc 78 25 8b 3d 2a e8 ba bd
       0.022348743 -0.029791905 0.06794256 -0.09126313
0001f0 f4 f6 6f bd f2 e2 2b bd 0b fa 4b bd b0 1e 96 3c
       -0.058585122 -0.04196448 -0.049799006 0.01832518
000200 6c 48 d7 3d 82 f0 3b 3c ee 86 a7 bd 5b a3 aa 3b
       0.1051186 0.011470916 -0.08180033 0.005207462
000210 be a3 c9 bd c0 f6 46 3d 61 ad 31 3d 88 64 75 bd
       -0.098456845 0.048575163 0.043378238 -0.059910327
000220 18 0a 0e bd 9e 04 19 bc 9a 23 d3 3c 59 9e a7 bd
       -0.034677595 -0.00933948 0.025773812 -0.08184499
000230 75 0d 08 bd 7a 6e e3 3c f2 ac 1e bd 0d 33 53 bd
       -0.03321596 0.02776264 -0.038739152 -0.051562358
000240 ba dc af bd 6c 98 af 3d a1 d2 a7 3c 96 a8 f8 3d
       -0.08587022 0.08573994 0.020486178 0.1214153
000250 7a fd bc bd f0 37 04 bd f0 b3 ac bd ea 17 89 bd
       -0.09228034 -0.03227991 -0.08432758 -0.06694014
000260 0d 32 be 3c 6e aa 51 bd 02 21 89 bd e0 d4 15 bc
       0.023217225 -0.051187925 -0.06695749 -0.009144992
000270 eb 6e da bb df 27 53 bd 1f 6c b1 bd e4 3c 27 bd
       -0.0066660545 -0.051551696 -0.086632006 -0.040829554
000280 6e 9a ab bd de d6 5d 3d 1c b4 55 bd 6d 61 5d bd
       -0.083790645 0.05415999 -0.05217372 -0.05404799
000290 39 89 e6 3c b2 72 33 bd eb f2 d4 bc 73 24 44 be
       0.028141605 -0.043810554 -0.025994739 -0.1915453
0002a0 99 5d 0f be a4 12 f7 3c ec 99 bb bd 01 62 94 bb
       -0.14000548 0.030160256 -0.09160218 -0.0045282845
0002b0 dd 31 82 3c 4c 1c ac bd bc f3 21 be 73 c0 1e 3d
       0.015892917 -0.08403835 -0.15815634 0.038757753
0002c0 d6 ee fc bd 87 62 65 bd 40 f2 96 bd 4a 17 0d bd
       -0.12350242 -0.056002166 -0.07370424 -0.03444604
0002d0 08 85 81 3d 44 24 38 bd 49 73 02 be aa 6c 09 3d
       0.06324202 -0.04495646 -0.1273929 0.033550896
0002e0 73 76 0e be 9a 7e 72 bd 66 9c 80 bd 78 88 ae bd
       -0.13912372 -0.059202768 -0.06279831 -0.08522123
0002f0 ac 00 87 bd ff 8b 57 bd b5 65 bd bb ec 1d 8d bd
       -0.06591925 -0.052623745 -0.0057799467 -0.06890473
000300 ac af 29 be 03 76 b1 3c 1d 8d df 3d 2c 52 fd 3d
       -0.1657092 0.021662718 0.10915587 0.12369189
000310 ba e0 c6 bd a9 6a d3 3c 70 5c 84 3d c9 14 60 be
       -0.09710832 0.025807695 0.064629436 -0.21882929
000320 e7 4d 05 be 0c 3f e0 bd 17 3a 07 3d 1d b5 21 bd
       -0.13017999 -0.10949525 0.033014383 -0.039479364
000330 fa 62 09 be c8 ed 21 bd c6 63 0a 3e 2b 53 20 3d
       -0.13416663 -0.039533406 0.13514623 0.039141815
000340 f9 a1 4f be 65 50 54 bd e0 d1 34 be e8 ce de 3c
       -0.20276631 -0.051834483 -0.17658186 0.02719827
000350 33 cb 06 3e c7 37 f5 bd 20 10 1c be b2 89 77 bb
       0.13163452 -0.11973529 -0.15240526 -0.0037771282
000360 6b 9f 86 bd b2 c5 05 be 47 fc 85 3c 71 c8 a2 bd
       -0.06573375 -0.13063696 0.016355647 -0.079483874
000370 15 7e 3b be f7 d9 17 be 76 90 1d bd e7 3c dc bd
       -0.18309815 -0.1482924 -0.038467847 -0.10753804
000380 83 50 a0 bd 34 1e f1 bd df c9 e0 3c c6 0c 54 3c
       -0.078278564 -0.11773339 0.02744001 0.012942499
000390 03 11 ba 3d 9e 47 84 bd 02 46 14 3d 23 97 03 be
       0.09085276 -0.064589724 0.036199577 -0.12850623
0003a0 a3 92 11 3e 62 e4 ed bd 7c 66 03 be 72 16 de 3b
       0.14216094 -0.11615826 -0.12832063 0.006777578
0003b0 9a 47 47 3e fc 0e 9d bd 94 17 82 3d a5 8e c4 bd
       0.19460908 -0.07668874 0.063521534 -0.0959752
0003c0 64 12 bb 3c 08 f9 89 bd 5e 05 82 3e 29 48 d9 3d
       0.022835918 -0.06736952 0.2539472 0.106094666
0003d0 bf 68 e7 3d 0b 34 e3 3d 23 a7 61 bd 68 0e c2 3d
       0.112992756 0.11093911 -0.055091035 0.09475404
0003e0 05 16 0d be 44 05 2e be 67 32 05 3e 2d 72 21 bd
       -0.13777931 -0.16994196 0.13007508 -0.039415527
0003f0 6d 1d bb 3d 08 ce d3 3d 69 48 31 3e 6a 9a 86 3d
       0.09136472 0.10342032 0.17312779 0.06572421

arith.constant4 f4 [10]
000000 59 dd 5a 3d 4f 14 17 3d 74 d3 42 bd 91 ff 96 bc
       0.05343375 0.036884602 -0.04756494 -0.01843241
000010 36 f1 f5 bc a7 16 05 3d cd be e3 bd 0f cd b9 3b
       -0.030022245 0.032492306 -0.11120377 0.005670197
000020 ad a4 14 bc 1e 8c ae 3d
       -0.009072465 0.08522819

arith.constant5 f4 [32]
000000 18 a1 cc bb 91 d0 89 bc db 8a 1c bc 62 ab 3d bc
       -0.00624479 -0.016823085 -0.00955459 -0.011576505
000010 3c e8 cd 3c 4a 49 ad 3d f5 86 92 bd 75 81 0e 3d
       0.025135152 0.084612444 -0.07154647 0.03479143
000020 2a 93 0c bd 9d bd b3 3c 6a d5 df b9 17 cc f0 bb
       -0.034320034 0.021941 -0.0004269288 -0.007348548
000030 96 8a 56 3d 49 d2 0c 3d 5d 11 4f bb ec 9e f3 3c
       0.05237826 0.03438023 -0.0031596043 0.029738866
000040 71 5d 16 3d f2 c4 94 3a ee 62 9e 3d 7b 10 2b 3d
       0.036710206 0.0011350198 0.07733713 0.041763764
000050 a3 1d 14 bc 2b 00 24 bd 34 a3 b0 3d 64 cf 9d 3c
       -0.009040269 -0.040039223 0.086248785 0.01926393
000060 8c fc c2 3d b2 f1 d6 3c 6a 35 ea 3c 78 99 26 bc
       0.09520826 0.026238296 0.028589923 -0.010168426
000070 70 bc 86 3d 00 f4 b6 3d 4f 5e af 3c 78 90 7b 3c
       0.0657891 0.08933258 0.021407275 0.015354268

sequential_2_1/conv2d_4_1/convolution f4 [32, 3, 3, 1]
000000 f1 f1 ed bd 26 fa ba 3e 4b 95 f5 3d 2b b6 d3 3e
       -0.11618412 0.36518973 0.11991366 0.4134992
000010 ed 1c ab 3e 87 69 a6 be 3c 28 9b bd 5e 4b ce be
       0.33420506 -0.32502386 -0.075760335 -0.40291876
000020 23 b7 9a be 77 28 9f 3e d6 0f 6d 3e 10 92 81 3e
       -0.30217847 0.3108556 0.23150572 0.2530675
000030 e0 53 33 be 5f 39 34 bc a7 7f 41 3d ad 2b ae be
       -0.17512465 -0.011000006 0.04724088 -0.34017697
000040 86 56 c3 be e3 dc be be 4e 6d 58 3c be 9a f0 3d
       -0.3815195 -0.37277898 0.013209654 0.11748265
000050 63 e0 0c bc 69 9b 66 3e ea ca 11 be b9 51 76 be
       -0.00859842 0.22520222 -0.14237562 -0.24054612
000060 5a 04 d5 3d a0 b7 74 3d a7 51 08 3e 14 eb 03 3e
       0.104012206 0.05974543 0.13312398 0.12882644
000070 93 ce ae 3d 68 b9 30 be 09 62 1c bc 82 b8 3b 3e
       0.08535495 -0.17258227 -0.009544858 0.18332103
000080 88 87 7c be f0 98 e2 3d 35 c4 79 3e 24 b2 b6 3d
       -0.24661076 0.11064327 0.24391253 0.089206964
000090 0a b6 54 be 24 eb 06 bf d0 1e 8f be 69 ba 96 3e
       -0.20772567 -0.52702546 -0.27953196 0.29439095
0000a0 f2 b7 29 3e 61 92 f0 3a 89 d2 5f 3e 19 e1 53 3e
       0.16574076 0.0018354171 0.21857657 0.20691337
0000b0 3d f2 12 3e 44 7d 05 be 8a 71 01 bd c3 15 b4 3d
       0.14350219 -0.13036066 -0.03160242 0.08793213
0000c0 8d bd 1f bd 47 bc 65 3e c5 40 5b bd d8 f7 12 3d
       -0.03899913 0.22435103 -0.053528566 0.035880893
0000d0 f4 6f 26 3d dc a5 bc bd 8e df c8 be 60 af a4 bd
       0.04063411 -0.09211323 -0.3923306 -0.080412626
0000e0 0c 5d 45 3c 9b cc a7 3d 5f b0 15 3e c5 b9 36 3e
       0.01204611 0.08193322 0.14618061 0.17844303
0000f0 bf 0c 20 3e af 58 16 3e 67 87 eb 3c 19 73 65 be
       0.15629862 0.14682268 0.028751088 -0.22407188
000100 65 7d a0 bd e6 d7 de 3d cd 11 54 3d 00 d2 75 3e
       -0.07836417 0.10881023 0.05177479 0.2400589
000110 92 a2 5a 3e 3e 4a b9 bc 3e 47 06 3e 80 9b f8 bd
       0.21351078 -0.02261841 0.13113114 -0.12139034
000120 31 c3 1f 3e fc e2 f8 bd b2 65 0c be d3 f3 26 3e
       0.15601803 -0.12152669 -0.13710669 0.16303949
000130 bc 61 c6 3d ff 08 09 3c 49 9e 2a 3d 18 32 80 3d
       0.0968661 0.008363961 0.04165486 0.062595546
000140 08 73 00 3d 9e 64 7d 3e 11 29 50 3e 94 75 60 be
       0.031359702 0.24745414 0.20328166 -0.21919852
000150 66 7f 4a 3e 63 89 2c 3e 6d 8c e5 be 73 e5 cb 3e
       0.19775161 0.16849284 -0.448337 0.39823493
000160 de 8b ca bc 90 db 1d bf c8 14 10 be 1e b9 6d bc
       -0.024724897 -0.6166315 -0.14070427 -0.014509467
000170 e6 88 08 be 16 84 c5 3c 11 69 3e bd 63 db 5b 3c
       -0.13333473 0.024110835 -0.046486918 0.013419005
000180 66 a6 4e bd 0f 74 cc bd c9 2c ff 3a 14 4e 55 3c
       -0.05045166 -0.09983074 0.0019468303 0.013019104
000190 4f 91 a9 3e aa 08 ba 3e 57 52 31 bf e5 dc c8 be
       0.33118674 0.36334735 -0.69266266 -0.3923103
0001a0 ff 6a 91 3e c5 f6 84 3e f1 29 d5 be fe 4d ff bd
       0.28401944 0.2596952 -0.4163356 -0.12466048
0001b0 47 17 11 3e 4c 37 06 3e 91 ba 71 be d8 89 87 bd
       0.14169036 0.13107032 -0.23606326 -0.066180885
0001c0 83 c4 a4 3d d8 d0 f5 3c 60 44 7c bc a2 3f df 3d
       0.08045294 0.030006811 -0.015397161 0.10900809
0001d0 c9 f5 19 3e ad 00 72 3c bc f7 de 3d 35 23 0b be
       0.15035166 0.014770669 0.10887095 -0.13587649
0001e0 95 37 76 bd 72 23 36 3e 6c 9b 2e bd 95 be b3 3d
       -0.0601116 0.17786959 -0.04262869 0.08776585
0001f0 5b 08 1a 3e 17 d5 d2 bd 1d 80 42 3d 3c a7 21 3e
       0.1504225 -0.1029455 0.04748546 0.15786451
000200 e8 ee 8c 3e 1a c7 44 be 18 6b 8e bd bd 48 95 3e
       0.2752602 -0.19216576 -0.0695402 0.29157057
000210 69 3f f4 be 78 80 4f be c3 02 6a 3e 7d f6 05 3d
       -0.47704628 -0.2026385 0.22852616 0.032705773
000220 ad e2 8d 3e 88 7b 0f 3e 95 9b 72 bd 26 e6 00 3e
       0.27712002 0.14011967 -0.059230406 0.12587795
000230 bb 49 ae 3e c5 4b ba be 7f 6f cb be eb fb 39 be
       0.34040627 -0.36385933 -0.39733502 -0.18162505
000240 e1 5f 63 3e 19 68 87 3e a1 aa 95 3e fa 9c 87 3c
       0.22204544 0.26446608 0.29231742 0.016554344
000250 9c 4a 21 3e c3 ee a9 3a 82 c2 d4 be 11 64 f3 be
       0.15751117 0.0012964833 -0.41554648 -0.47537282
000260 9c d9 60 be 5e d3 e5 3d 98 da 1d 3e 96 ac f1 bc
       -0.21958011 0.11221956 0.15415418 -0.02950124
000270 e7 69 27 3e 8b a8 83 bc a2 60 a9 bd e2 50 81 3d
       0.16348992 -0.016071578 -0.08270384 0.06314255
000280 0a 0e e5 3d 5c e2 03 bd 77 53 ea 3d 7d e5 c3 3d
       0.11184318 -0.032198295 0.11441701 0.09565256
000290 af 36 df 3d 38 06 4c be 36 9b e3 3d c2 e0 4e 3e
       0.10899102 -0.19924247 0.111135885 0.20202926
0002a0 ef ba 73 be 3e 54 ed bd db 7f 59 3d 33 e7 be be
       -0.23801778 -0.115883335 0.053100448 -0.37285766
0002b0 bf aa dd be 1b 10 88 3d 9c ec b9 be 70 af c7 bd
       -0.4329433 0.06643697 -0.3631333 -0.09750259
0002c0 03 63 dc 3e 6d 18 4c be 49 e1 89 3d a0 47 bd 3e
       0.4304429 -0.19931193 0.06732423 0.36968708
0002d0 e5 54 8b be de ab 5e 3e 7e b1 f6 3d 63 01 4b 3d
       -0.27213207 0.2174525 0.12045573 0.04956187
0002e0 4e ba 8a 3e c9 be 2e bd a4 38 fd 3c c9 df 06 3e
       0.27095264 -0.042662416 0.030910797 0.13171305
0002f0 4b 68 77 be 2c a6 7a 3d a3 d5 58 3e 7c 36 45 3e
       -0.24160878 0.06119363 0.21175246 0.19259065
000300 84 bb 8f 3e e9 0d ab 3d 63 aa 17 be d7 ec 51 be
       0.2807275 0.083522625 -0.14811091 -0.20500503
000310 1e 15 87 be ae eb 88 be 93 27 67 be de c1 62 3d
       -0.263833 -0.2674231 -0.2257369 0.055360667
000320 8e 58 fc 3d 28 26 05 be 73 c6 a1 3d 5c 45 e9 3d
       0.12321578 -0.13002837 0.07899179 0.113901824
000330 9a 14 91 be ca a3 b5 3d ff 60 18 3e bc 9c e0 be
       -0.2833603 0.08869131 0.14880751 -0.4386958
000340 e5 c0 13 be 8d 0b 01 3e 6a 27 17 be de 66 4f bd
       -0.14429052 0.12602063 -0.14761129 -0.05063521
000350 67 f2 f8 bd 2b 1e fe 3e 45 3b 88 3e 2d e6 0f bd
       -0.121556096 0.4963239 0.2660772 -0.035131622
000360 86 04 a7 be c7 60 ab be 91 5a 92 be 99 f2 d1 bd
       -0.3262064 -0.33472273 -0.28584722 -0.1025135
000370 df 97 e2 bd 10 3c 04 3e e1 20 c5 3e 70 a3 bd 3e
       -0.11064123 0.12913537 0.38501647 0.37038755
000380 02 81 2b 3e c8 84 a4 3e 4a f0 91 3e 67 80 65 3e
       0.16748431 0.32132554 0.28503639 0.22412263
000390 af 1f 4b 3d 0b 88 02 bd cf 6f b7 be 30 75 9f be
       0.049590763 -0.031868022 -0.3582749 -0.31144094
0003a0 40 a6 e3 be c0 93 9b be 85 7b 4b be ec d9 61 3d
       -0.44462776 -0.30386162 -0.19871338 0.055139467
0003b0 b3 02 18 be 7e 7a b7 3d f5 c8 42 3e 9e 67 6d 3d
       -0.1484478 0.089589104 0.19021972 0.057960145
0003c0 30 01 2c be 70 e9 c2 3d 8a 2e 0c 3e c6 d6 12 3d
       -0.16797328 0.09517181 0.13689628 0.035849355
0003d0 a0 3d 9e bb a5 0e bc be 15 db 13 3e 98 dc b0 3e
       -0.0048291236 -0.36729923 0.14439042 0.345433
0003e0 a5 47 c6 bd 70 44 6e be d9 9a 68 3e 56 10 15 3e
       -0.09681634 -0.23268294 0.2271532 0.14557013
0003f0 f3 1e db 3d 97 7f 21 3e 8d b0 b6 bc 73 2c b2 bd
       0.106992625 0.15771328 -0.022300983 -0.08699884

sequential_2_1/re_lu_6_1/Relu6;sequential_2_1/conv2d_4_1/BiasAdd;sequential_2_1/conv2d_4_1/convolution; f4 [32]
000000 c4 18 bd ba a5 a7 83 3d 3e 0d f9 bd 6c 20 d1 bd
       -0.0014426936 0.0642846 -0.12160729 -0.10211262
000010 34 04 3b bc ad 41 f6 bc 70 d4 60 be 80 0c ce bd
       -0.011414576 -0.030060614 -0.21956038 -0.10060978
000020 14 06 1d be 7c da 50 bc aa c9 07 bd 5d 21 60 3d
       -0.1533435 -0.012747403 -0.033151306 0.054719318
000030 ae de 49 be cb 3a f8 bd 35 25 8d bd 88 f6 3b bd
       -0.19713852 -0.12120589 -0.06891862 -0.045889407
000040 84 ff 9d 3d 2a ec ec bd de 07 f2 bd a2 0b 36 bb
       0.07714751 -0.11568482 -0.11817907 -0.002777793
000050 d7 93 a2 bd 41 1e 2c bc a9 61 c5 bd ee 6c 4a bc
       -0.079383545 -0.01050526 -0.09637768 -0.012355072
000060 7f f1 3a bc d1 48 83 bb ff fa 1a bd eb ab 14 be
       -0.011410116 -0.004006483 -0.037837025 -0.14518707
000070 af 04 3a be 76 31 c9 bb 46 d3 96 bd 5f 81 3a bc
       -0.18165849 -0.0061399294 -0.07364516 -0.011383384
