tensorflow/lite/micro/examples/mnist/models/mnist_int8.tflite (tflite, 42280 bytes, 4 tensors)

tfl.pseudo_qconst1 i1 [10, 32]
000000 f7 cd 3c d4 ac 59 1b 18 20 e1 23 01 38 55 d9 c8
       -9 -51 60 -44 -84 89 27 24 32 -31 35 1 56 85 -39 -56
000010 81 8b ca a8 33 df 9b c8 16 f1 35 3f 43 20 d6 fb
       -127 -117 -54 -88 51 -33 -101 -56 22 -15 53 63 67 32 -42 -5
000020 4d e5 bd 19 d2 2d e0 55 eb 09 bf f8 9d fb f5 de
       77 -27 -67 25 -46 45 -32 85 -21 9 -65 -8 -99 -5 -11 -34
000030 1c 47 44 36 c7 2d 43 2a 34 03 3f 81 2a 18 a5 09
       28 71 68 54 -57 45 67 42 52 3 63 -127 42 24 -91 9
000040 e1 2a 1c fa 3d 2c 28 4e 11 0b cb bc a1 25 19 b6
       -31 42 28 -6 61 44 40 78 17 11 -53 -68 -95 37 25 -74
000050 66 a9 81 c3 d1 30 f4 c3 13 54 48 14 d4 37 cc ea
       102 -87 -127 -61 -47 48 -12 -61 19 84 72 20 -44 55 -52 -22
000060 fd 50 ad e1 06 56 d7 d4 12 db f2 05 f3 28 c8 36
       -3 80 -83 -31 6 86 -41 -44 18 -37 -14 5 -13 40 -56 54
000070 3f 18 23 d4 40 1a d8 30 12 b3 e7 ca b2 81 4d a3
       63 24 35 -44 64 26 -40 48 18 -77 -25 -54 -78 -127 77 -93
000080 01 2f 2f f7 0d a6 3b 65 b0 2b 18 d7 e9 e5 3d bd
       1 47 47 -9 13 -90 59 101 -80 43 24 -41 -23 -27 61 -67
000090 bb 35 da 10 42 fe c1 34 fb fd a5 15 ff 0b 81 17
       -69 53 -38 16 66 -2 -63 52 -5 -3 -91 21 -1 11 -127 23
0000a0 be af 13 02 81 41 23 d2 17 46 40 37 9a 91 06 cf
       -66 -81 19 2 -127 65 35 -46 23 70 64 55 -102 -111 6 -49
0000b0 51 27 36 17 50 9c 9d a2 cd 54 92 35 89 9c 20 43
       81 39 54 23 80 -100 -99 -94 -51 84 -110 53 -119 -100 32 67
0000c0 ef c5 27 26 01 2c 05 41 fe 12 06 0f 2d ea f2 92
       -17 -59 39 38 1 44 5 65 -2 18 6 15 45 -22 -14 -110
0000d0 05 2f 53 a5 e6 e1 81 bb cc 03 bf 01 6c 49 f8 c2
       5 47 83 -91 -26 -31 -127 -69 -52 3 -65 1 108 73 -8 -62
0000e0 08 dc 51 f6 01 33 20 c7 f2 9e 2b 3e 5b c0 52 c4
       8 -36 81 -10 1 51 32 -57 -14 -98 43 62 91 -64 82 -60
0000f0 d4 4a 81 76 4a bd 21 f0 a9 f3 7e 3d 9b b8 82 cd
       -44 74 -127 118 74 -67 33 -16 -87 -13 126 61 -101 -72 -126 -51

tfl.pseudo_qconst3 i1 [32, 800]
000000 ef ce ee bd f2 86 ff b9 d5 df 0e b9 d6 e7 a9 cd
       -17 -50 -18 -67 -14 -122 -1 -71 -43 -33 14 -71 -42 -25 -87 -51
000010 b8 f1 c7 f6 41 b4 f0 eb 04 a0 fc fc d7 d8 1b 03
       -72 -15 -57 -10 65 -76 -16 -21 4 -96 -4 -4 -41 -40 27 3
000020 f7 f1 48 15 fa e6 ff 06 0f fb 02 1d 08 00 51 f7
       -9 -15 72 21 -6 -26 -1 6 15 -5 2 29 8 0 81 -9
000030 e0 2d 14 e6 e2 29 b5 36 22 da ef f2 b8 0d 4c cb
       -32 45 20 -26 -30 41 -75 54 34 -38 -17 -14 -72 13 76 -53
000040 3a e1 61 13 0b e7 01 0b 3f 1c 1f c7 12 e4 31 04
       58 -31 97 19 11 -25 1 11 63 28 31 -57 18 -28 49 4
000050 0c e2 15 01 51 01 f3 33 dd 10 34 0b f9 60 3f 3b
       12 -30 21 1 81 1 -13 51 -35 16 52 11 -7 96 63 59
000060 e7 0a 08 0c fa be 13 f9 14 1f 00 32 ea ea 42 cb
       -25 10 8 12 -6 -66 19 -7 20 31 0 50 -22 -22 66 -53
000070 96 05 0b 05 c9 eb d8 d1 0b f1 22 d2 e3 eb e7 09
       -106 5 11 5 -55 -21 -40 -47 11 -15 34 -46 -29 -21 -25 9
000080 35 06 d7 03 cf 18 16 e2 ef fb 0d d7 ef 0e ed e6
       53 6 -41 3 -49 24 22 -30 -17 -5 13 -41 -17 14 -19 -26
000090 d5 2b 0a 3d d2 f0 d6 df 0c e6 df fb fd e6 d5 ec
       -43 43 10 61 -46 -16 -42 -33 12 -26 -33 -5 -3 -26 -43 -20
0000a0 d6 1b e6 e5 0e ea f3 a0 ba 0f d2 fe 08 d6 b1 13
       -42 27 -26 -27 14 -22 -13 -96 -70 15 -46 -2 8 -42 -79 19
0000b0 c2 e4 db ef 20 ea c0 11 ba e2 e1 d5 df e6 fd de
       -62 -28 -37 -17 32 -22 -64 17 -70 -30 -31 -43 -33 -26 -3 -34
0000c0 ad 0b 37 3e cf 0d 20 93 bf c9 11 ec bd ec 44 14
       -83 11 55 62 -49 13 32 -109 -65 -55 17 -20 -67 -20 68 20
0000d0 9b e6 a8 0e 42 c4 b4 fe df bf 08 d8 a4 b6 ed ca
       -101 -26 -88 14 66 -60 -76 -2 -33 -65 8 -40 -92 -74 -19 -54
0000e0 d9 c5 0e 06 2d e0 12 c0 47 c6 c0 03 61 da 20 d0
       -39 -59 14 6 45 -32 18 -64 71 -58 -64 3 97 -38 32 -48
0000f0 0b de 7f 35 39 37 e4 2f bb ab 41 ec 2e 34 57 21
       11 -34 127 53 57 55 -28 47 -69 -85 65 -20 46 52 87 33

tfl.pseudo_qconst5 i1 [32, 3, 3, 32]
000000 43 11 e2 04 d7 f1 26 ff 0a 2f e4 aa 23 d9 cf 01
       67 17 -30 4 -41 -15 38 -1 10 47 -28 -86 35 -39 -49 1
000010 0d 1a de 45 15 0f 1d d3 f9 08 f6 c9 df 1d 18 fd
       13 26 -34 69 21 15 29 -45 -7 8 -10 -55 -33 29 24 -3
000020 73 db 00 e5 f0 31 1a 1a ef fc d6 81 e8 e4 9e 1e
       115 -37 0 -27 -16 49 26 26 -17 -4 -42 -127 -24 -28 -98 30
000030 fa 00 c9 07 1b 20 c8 24 16 2e 1f f1 c9 fa d0 eb
       -6 0 -55 7 27 32 -56 36 22 46 31 -15 -55 -6 -48 -21
000040 42 e3 fb d5 0d f7 b6 d8 f1 5a e2 0f da fc 11 fc
       66 -29 -5 -43 13 -9 -74 -40 -15 90 -30 15 -38 -4 17 -4
000050 ec da b8 e8 ee ea 9f 39 11 32 ad b8 b2 21 c1 fe
       -20 -38 -72 -24 -18 -22 -97 57 17 50 -83 -72 -78 33 -63 -2
000060 cf b8 1f 01 11 1a 14 18 1f da 08 cb 06 0b dc df
       -49 -72 31 1 17 26 20 24 31 -38 8 -53 6 11 -36 -33
000070 d4 0c fc 00 fe c8 f0 32 26 a6 01 e4 0f f1 f4 e2
       -44 12 -4 0 -2 -56 -16 50 38 -90 1 -28 15 -15 -12 -30
000080 1b d1 11 ed 30 27 1c d7 1a ed ff df 15 f9 e5 09
       27 -47 17 -19 48 39 28 -41 26 -19 -1 -33 21 -7 -27 9
000090 b4 f7 e8 c1 e3 01 c2 0a 09 dd 20 2e 01 e6 16 f6
       -76 -9 -24 -63 -29 1 -62 10 9 -35 32 46 1 -26 22 -10
0000a0 cc cd 0a 00 45 f7 e1 05 e1 1b 19 c3 f5 e7 de fb
       -52 -51 10 0 69 -9 -31 5 -31 27 25 -61 -11 -25 -34 -5
0000b0 a7 d9 d6 01 f5 e0 eb 3c 3e f5 02 1d 0e 15 0b e4
       -89 -39 -42 1 -11 -32 -21 60 62 -11 2 29 14 21 11 -28
0000c0 13 40 fd be c4 e5 cf ed 02 c9 fe e2 e2 0f 1d 47
       19 64 -3 -66 -60 -27 -49 -19 2 -55 -2 -30 -30 15 29 71
0000d0 3a e7 e1 8c f5 2b 9a e5 a0 39 e3 00 e1 22 f0 36
       58 -25 -31 -116 -11 43 -102 -27 -96 57 -29 0 -31 34 -16 54
0000e0 18 2a d9 0e f4 17 c8 fa 06 df dc 31 20 d0 31 30
       24 42 -39 14 -12 23 -56 -6 6 -33 -36 49 32 -48 49 48
0000f0 32 ca 37 af b6 29 f4 fc ed 2c 1a 38 1c e7 e2 30
       50 -54 55 -81 -74 41 -12 -4 -19 44 26 56 28 -25 -30 48

tfl.pseudo_qconst7 i1 [32, 3, 3, 1]
000000 dc 70 25 7f 67 9c e9 84 a3 67 4d 54 c6 fc 10 8f
       -36 112 37 127 103 -100 -23 -124 -93 103 77 84 -58 -4 16 -113
000010 81 84 07 3e fb 77 b5 81 37 20 46 42 2c a7 fb 5e
       -127 -124 7 62 -5 119 -75 -127 55 32 70 66 44 -89 -5 94
000020 81 39 7e 2e ce 81 bd 47 28 00 35 32 23 b6 ee 32
       -127 57 126 46 -50 -127 -67 71 40 0 53 50 35 -74 -18 50
000030 ea 7f e2 14 17 cc 81 e6 04 1b 2f 3a 33 30 09 89
       -22 127 -30 20 23 -52 -127 -26 4 27 47 58 51 48 9 -119
000040 d7 3a 1b 7f 71 f4 45 c0 7a a1 95 7f 4b 07 20 31
       -41 58 27 127 113 -12 69 -64 122 -95 -107 127 75 7 32 49
000050 18 33 2a d3 29 23 a4 52 fb 81 81 f3 88 16 d6 0c
       24 51 42 -45 41 35 -92 82 -5 -127 -127 -13 -120 22 -42 12
000060 d2 a6 02 02 3d 43 81 b8 34 30 b4 e9 4c 47 81 dc
       -46 -90 2 2 61 67 -127 -72 52 48 -76 -23 76 71 -127 -36
000070 2b 10 f8 3b 51 0b 4e 9f d5 7f e2 3f 6b b6 0d 2a
       43 16 -8 59 81 11 78 -97 -43 127 -30 63 107 -74 13 42
000080 49 cd ed 4e 81 ca 3d 0a 59 2d ed 28 6d 8c 81 c6
       73 -51 -19 78 -127 -54 61 10 89 45 -19 40 109 -116 -127 -58
000090 3b 47 4e 04 2a 00 91 81 c5 57 78 e9 7f f4 c0 31
       59 71 78 4 42 0 -111 -127 -59 87 120 -23 127 -12 -64 49
0000a0 57 e7 3d 33 3a 96 3b 6c 81 c2 1c 93 81 13 95 e3
       87 -25 61 51 58 -106 59 108 -127 -62 28 -109 -127 19 -107 -29
0000b0 7e c6 14 6c 81 65 38 17 7e ec 0e 3d 8f 1c 60 57
       126 -58 20 108 -127 101 56 23 126 -20 14 61 -113 28 96 87
0000c0 7f 26 bd a3 89 87 9b 19 37 c6 23 33 81 28 43 90
       127 38 -67 -93 -119 -121 -101 25 55 -58 35 51 -127 40 67 -112
0000d0 db 20 da f3 e1 7f 44 f7 94 92 a2 de dc 2b 7f 7a
       -37 32 -38 -13 -31 127 68 -9 -108 -110 -94 -34 -36 43 127 122
0000e0 37 5c 51 40 0e f7 9a a7 81 a9 81 23 a1 39 7a 25
       55 92 81 64 14 -9 -102 -89 -127 -87 -127 35 -95 57 122 37
0000f0 95 3d 57 0c fe 81 32 77 df b0 4f 32 46 67 f1 c7
       -107 61 87 12 -2 -127 50 119 -33 -80 79 50 70 103 -15 -57
