tensorflow/lite/micro/examples/mnist/models/mnist_int8.tflite (tflite, 235240 bytes, 4 tensors)

tfl.pseudo_qconst1 i1 [10, 128]
0	0x2a	42
1	0x18	24
2	0xe0	-32
3	0xf9	-7
4	0xc7	-57
5	0xf1	-15
6	0x8f	-113
7	0xf2	-14
8	0xff	-1
9	0xe9	-23
10	0xe4	-28
11	0xd2	-46
12	0x47	71
13	0x0d	13
14	0x96	-106
15	0x13	19
16	0x09	9
17	0x83	-125
18	0xd6	-42
19	0xd5	-43
20	0x12	18
21	0xb6	-74
22	0xd1	-47
23	0x97	-105
24	0xe9	-23
25	0xdc	-36
26	0xf1	-15
27	0xdc	-36
28	0x0c	12
29	0x37	55
30	0xf3	-13
31	0x12	18
32	0xf5	-11
33	0x37	55
34	0xd6	-42
35	0x20	32
36	0x3c	60
37	0xe9	-23
38	0xdb	-37
39	0x2b	43
40	0x2f	47
41	0x21	33
42	0x5d	93
43	0x45	69
44	0xc4	-60
45	0x2d	45
46	0x0a	10
47	0x12	18
48	0x46	70
49	0xd7	-41
50	0xbc	-68
51	0xeb	-21
52	0xb1	-79
53	0x35	53
54	0xe0	-32
55	0xda	-38
56	0x2c	44
57	0xee	-18
58	0x04	4
59	0xc9	-55
60	0xb9	-71
61	0x47	71
62	0x40	64
63	0x28	40
64	0x07	7
65	0x2d	45
66	0xdd	-35
67	0xeb	-21
68	0x20	32
69	0x1c	28
70	0x26	38
71	0xa0	-96
72	0x45	69
73	0x1a	26
74	0x11	17
75	0x22	34
76	0x28	40
77	0xba	-70
78	0xb9	-71
79	0xa6	-90
80	0xfd	-3
81	0xaa	-86
82	0x18	24
83	0xeb	-21
84	0xe9	-23
85	0x23	35
86	0x37	55
87	0xf8	-8
88	0xc1	-63
89	0xf5	-11
90	0xf7	-9
91	0xc3	-61
92	0xa6	-90
93	0x2e	46
94	0x2c	44
95	0xba	-70
96	0xd1	-47
97	0xcd	-51
98	0x0f	15
99	0x5a	90
100	0x2e	46
101	0x14	20
102	0x33	51
103	0xc1	-63
104	0x9d	-99
105	0x21	33
106	0xc9	-55
107	0xb7	-73
108	0x37	55
109	0x33	51
110	0x3d	61
111	0xd6	-42
112	0x2a	42
113	0xff	-1
114	0xcc	-52
115	0xe8	-24
116	0xb7	-73
117	0x01	1
118	0x03	3
119	0xfb	-5
120	0x94	-108
121	0x1b	27
122	0x40	64
123	0x81	-127
124	0xf3	-13
125	0x9f	-97
126	0xd7	-41
127	0xf4	-12
128	0x26	38
129	0xb6	-74
130	0xda	-38
131	0x18	24
132	0x01	1
133	0x0d	13
134	0x14	20
135	0x1d	29
136	0xc7	-57
137	0x1a	26
138	0xdf	-33
139	0xdb	-37
140	0xb2	-78
141	0xf8	-8
142	0xaf	-81
143	0xe3	-29
144	0x4f	79
145	0x21	33
146	0x1c	28
147	0xc2	-62
148	0xe0	-32
149	0xd6	-42
150	0x3d	61
151	0x2f	47
152	0x0d	13
153	0x17	23
154	0x20	32
155	0x2a	42
156	0x1d	29
157	0x1d	29
158	0x47	71
159	0x13	19
160	0x16	22
161	0xd9	-39
162	0x0a	10
163	0x3d	61
164	0xd6	-42
165	0xf5	-11
166	0x45	69
167	0x0c	12
168	0x15	21
169	0xfc	-4
170	0x2a	42
171	0x3d	61
172	0xec	-20
173	0xdf	-33
174	0xe0	-32
175	0x0c	12
176	0xaf	-81
177	0xc1	-63
178	0x32	50
179	0xb2	-78
180	0x21	33
181	0xd1	-47
182	0xd0	-48
183	0x33	51
184	0x2c	44
185	0x06	6
186	0xf5	-11
187	0xc1	-63
188	0xc3	-61
189	0x38	56
190	0xfb	-5
191	0xf5	-11
192	0xc7	-57
193	0x11	17
194	0xf9	-7
195	0xfb	-5
196	0xda	-38
197	0x0c	12
198	0x14	20
199	0x0e	14
200	0xb1	-79
201	0xdc	-36
202	0xdb	-37
203	0xe8	-24
204	0x2c	44
205	0x2f	47
206	0xc2	-62
207	0x3d	61
208	0x03	3
209	0xee	-18
210	0xca	-54
211	0x02	2
212	0xbf	-65
213	0xdd	-35
214	0xdf	-33
215	0x1b	27
216	0x2b	43
217	0x0d	13
218	0x20	32
219	0x2c	44
220	0x1b	27
221	0x13	19
222	0x9d	-99
223	0xf8	-8
224	0x25	37
225	0x22	34
226	0x8a	-118
227	0x19	25
228	0x14	20
229	0x28	40
230	0x01	1
231	0x15	21
232	0xe7	-25
233	0xee	-18
234	0x81	-127
235	0x21	33
236	0xfc	-4
237	0xd1	-47
238	0x13	19
239	0xf8	-8
240	0x40	64
241	0x42	66
242	0x13	19
243	0xda	-38
244	0x32	50
245	0x34	52
246	0x2d	45
247	0x0f	15
248	0x22	34
249	0xf4	-12
250	0x30	48
251	0xdf	-33
252	0x1c	28
253	0xe0	-32
254	0xe0	-32
255	0xdc	-36

tfl.pseudo_qconst3 i1 [128, 1600]
0	0x00	0
1	0x45	69
2	0xf7	-9
3	0x14	20
4	0xdf	-33
5	0x03	3
6	0x01	1
7	0x09	9
8	0xe8	-24
9	0x02	2
10	0xf5	-11
11	0x22	34
12	0x09	9
13	0x10	16
14	0xf3	-13
15	0x1b	27
16	0xf7	-9
17	0x04	4
18	0x20	32
19	0x0e	14
20	0xf2	-14
21	0x2c	44
22	0x20	32
23	0xfc	-4
24	0x26	38
25	0x11	17
26	0xeb	-21
27	0x0a	10
28	0x09	9
29	0x15	21
30	0x0a	10
31	0x4e	78
32	0x1a	26
33	0xcc	-52
34	0xff	-1
35	0x73	115
36	0x05	5
37	0x05	5
38	0xed	-19
39	0xf2	-14
40	0xff	-1
41	0xe5	-27
42	0xfc	-4
43	0xf3	-13
44	0xf1	-15
45	0xfd	-3
46	0x19	25
47	0xf6	-10
48	0xe8	-24
49	0x2f	47
50	0x05	5
51	0x07	7
52	0xfe	-2
53	0x20	32
54	0x10	16
55	0xea	-22
56	0x11	17
57	0x07	7
58	0x08	8
59	0x12	18
60	0x19	25
61	0xea	-22
62	0x12	18
63	0x15	21
64	0x2c	44
65	0x22	34
66	0xe7	-25
67	0x2a	42
68	0x09	9
69	0xeb	-21
70	0xf3	-13
71	0xeb	-21
72	0x03	3
73	0xf7	-9
74	0x02	2
75	0x5a	90
76	0x02	2
77	0x06	6
78	0xf4	-12
79	0x13	19
80	0xfb	-5
81	0x1e	30
82	0xe8	-24
83	0xfb	-5
84	0xf7	-9
85	0x08	8
86	0xfd	-3
87	0x43	67
88	0x3a	58
89	0xf0	-16
90	0xfd	-3
91	0x10	16
92	0x09	9
93	0xee	-18
94	0xf0	-16
95	0x02	2
96	0xef	-17
97	0xfd	-3
98	0x13	19
99	0x09	9
100	0x0a	10
101	0xf8	-8
102	0xf6	-10
103	0xdf	-33
104	0xf2	-14
105	0xf1	-15
106	0x04	4
107	0xfa	-6
108	0xef	-17
109	0x15	21
110	0xe1	-31
111	0xf1	-15
112	0xf1	-15
113	0xf4	-12
114	0xff	-1
115	0x10	16
116	0xf6	-10
117	0x28	40
118	0x15	21
119	0x08	8
120	0x02	2
121	0xe3	-29
122	0x1c	28
123	0x05	5
124	0x06	6
125	0xee	-18
126	0x22	34
127	0x30	48
128	0x17	23
129	0xf1	-15
130	0xc6	-58
131	0x27	39
132	0x0f	15
133	0x1e	30
134	0x01	1
135	0xea	-22
136	0x43	67
137	0x02	2
138	0x0a	10
139	0xf9	-7
140	0x0d	13
141	0x27	39
142	0xe6	-26
143	0xec	-20
144	0x01	1
145	0x07	7
146	0x13	19
147	0x0a	10
148	0xf5	-11
149	0x05	5
150	0x0e	14
151	0x14	20
152	0x34	52
153	0xd4	-44
154	0xd0	-48
155	0xf4	-12
156	0x0d	13
157	0x26	38
158	0x02	2
159	0xdd	-35
160	0xfa	-6
161	0x1d	29
162	0xe3	-29
163	0x12	18
164	0xeb	-21
165	0x0d	13
166	0x07	7
167	0x31	49
168	0xd6	-42
169	0x2f	47
170	0x29	41
171	0xe3	-29
172	0x28	40
173	0x31	49
174	0xb6	-74
175	0x39	57
176	0xf9	-7
177	0xf4	-12
178	0x05	5
179	0xe0	-32
180	0x1d	29
181	0xfd	-3
182	0xef	-17
183	0x0e	14
184	0x10	16
185	0xf6	-10
186	0x1f	31
187	0x09	9
188	0xfd	-3
189	0x2b	43
190	0x24	36
191	0x1e	30
192	0x2a	42
193	0x04	4
194	0xeb	-21
195	0x09	9
196	0xe5	-27
197	0x2b	43
198	0xfe	-2
199	0x21	33
200	0x00	0
201	0x2f	47
202	0xf9	-7
203	0xf7	-9
204	0xf9	-7
205	0x2e	46
206	0x03	3
207	0x04	4
208	0x16	22
209	0x37	55
210	0x13	19
211	0x1e	30
212	0x1a	26
213	0xe7	-25
214	0xff	-1
215	0x23	35
216	0xfc	-4
217	0xf3	-13
218	0xdd	-35
219	0xdb	-37
220	0x30	48
221	0x36	54
222	0xd2	-46
223	0xee	-18
224	0x24	36
225	0xf9	-7
226	0xdd	-35
227	0x12	18
228	0xb5	-75
229	0x1e	30
230	0x1f	31
231	0xe3	-29
232	0x14	20
233	0x31	49
234	0xfc	-4
235	0x09	9
236	0xb3	-77
237	0x09	9
238	0x39	57
239	0x03	3
240	0x1f	31
241	0xe0	-32
242	0x1d	29
243	0xec	-20
244	0xf0	-16
245	0xd8	-40
246	0xf4	-12
247	0x0c	12
248	0xfd	-3
249	0xf8	-8
250	0x13	19
251	0x24	36
252	0xf3	-13
253	0xfa	-6
254	0x1a	26
255	0xe6	-26

tfl.pseudo_qconst5 i1 [64, 3, 3, 32]
0	0x2a	42
1	0x32	50
2	0x18	24
3	0x09	9
4	0x0a	10
5	0x2f	47
6	0xb4	-76
7	0x3a	58
8	0x25	37
9	0x25	37
10	0x3c	60
11	0x29	41
12	0x10	16
13	0xf0	-16
14	0x0f	15
15	0xb5	-75
16	0x1f	31
17	0xf0	-16
18	0xd4	-44
19	0xed	-19
20	0xe6	-26
21	0x08	8
22	0x1b	27
23	0xe5	-27
24	0x23	35
25	0x01	1
26	0x27	39
27	0x46	70
28	0x17	23
29	0xfe	-2
30	0x2e	46
31	0xc1	-63
32	0xda	-38
33	0x33	51
34	0x26	38
35	0xd7	-41
36	0x00	0
37	0xb3	-77
38	0x03	3
39	0x17	23
40	0x08	8
41	0x22	34
42	0xf4	-12
43	0xdc	-36
44	0x18	24
45	0x08	8
46	0xdd	-35
47	0x8d	-115
48	0xcf	-49
49	0xd1	-47
50	0xfa	-6
51	0x16	22
52	0xd7	-41
53	0x43	67
54	0x67	103
55	0x11	17
56	0xf8	-8
57	0x36	54
58	0x04	4
59	0x1c	28
60	0x09	9
61	0xe9	-23
62	0x0a	10
63	0xfe	-2
64	0x32	50
65	0xf2	-14
66	0xfe	-2
67	0xfd	-3
68	0x0b	11
69	0xdb	-37
70	0xcf	-49
71	0x40	64
72	0x22	34
73	0x0f	15
74	0x09	9
75	0xf6	-10
76	0xfe	-2
77	0xbe	-66
78	0xe5	-27
79	0x18	24
80	0xc2	-62
81	0x1d	29
82	0xcc	-52
83	0xe2	-30
84	0xc2	-62
85	0x15	21
86	0x13	19
87	0x0f	15
88	0xf8	-8
89	0xfd	-3
90	0x1d	29
91	0x10	16
92	0x45	69
93	0xec	-20
94	0xfb	-5
95	0xf6	-10
96	0xf8	-8
97	0x01	1
98	0x01	1
99	0x12	18
100	0xca	-54
101	0xbc	-68
102	0x2f	47
103	0xde	-34
104	0x11	17
105	0xf5	-11
106	0xba	-70
107	0x0c	12
108	0x07	7
109	0x18	24
110	0x32	50
111	0xd7	-41
112	0x05	5
113	0x89	-119
114	0x0e	14
115	0xf6	-10
116	0x23	35
117	0x26	38
118	0xf5	-11
119	0xe5	-27
120	0xe5	-27
121	0x1b	27
122	0x08	8
123	0xc8	-56
124	0x00	0
125	0x35	53
126	0x9a	-102
127	0xe6	-26
128	0x81	-127
129	0xd8	-40
130	0xf1	-15
131	0x09	9
132	0xd7	-41
133	0x8e	-114
134	0xfe	-2
135	0xe3	-29
136	0xff	-1
137	0xe3	-29
138	0xf0	-16
139	0xb1	-79
140	0xf7	-9
141	0x16	22
142	0xe8	-24
143	0xc4	-60
144	0xe2	-30
145	0xc5	-59
146	0x0d	13
147	0x02	2
148	0x13	19
149	0x07	7
150	0xf6	-10
151	0x01	1
152	0xb8	-72
153	0x2c	44
154	0xef	-17
155	0xef	-17
156	0xff	-1
157	0x1a	26
158	0xfc	-4
159	0x02	2
160	0xbb	-69
161	0x91	-111
162	0x05	5
163	0x01	1
164	0xd6	-42
165	0xbf	-65
166	0x13	19
167	0x63	99
168	0x1e	30
169	0xf3	-13
170	0xfa	-6
171	0xb6	-74
172	0xfd	-3
173	0x03	3
174	0xeb	-21
175	0x0a	10
176	0xf7	-9
177	0xd2	-46
178	0x24	36
179	0x1d	29
180	0x16	22
181	0x18	24
182	0xc3	-61
183	0x16	22
184	0xce	-50
185	0xf5	-11
186	0x16	22
187	0x1e	30
188	0x2c	44
189	0xdf	-33
190	0xe7	-25
191	0xf8	-8
192	0xc3	-61
193	0x28	40
194	0x0b	11
195	0xdc	-36
196	0xe6	-26
197	0xac	-84
198	0x2c	44
199	0x13	19
200	0x0e	14
201	0xe6	-26
202	0xf8	-8
203	0xe6	-26
204	0x07	7
205	0x12	18
206	0x2b	43
207	0x06	6
208	0xcd	-51
209	0xf4	-12
210	0x16	22
211	0x0b	11
212	0x27	39
213	0xe7	-25
214	0x23	35
215	0x03	3
216	0xd0	-48
217	0x0d	13
218	0xda	-38
219	0xf3	-13
220	0xd7	-41
221	0xdf	-33
222	0xed	-19
223	0x10	16
224	0xb1	-79
225	0x01	1
226	0xf6	-10
227	0xeb	-21
228	0x10	16
229	0xef	-17
230	0x3d	61
231	0xc5	-59
232	0xef	-17
233	0x09	9
234	0xc8	-56
235	0x91	-111
236	0x19	25
237	0x27	39
238	0x18	24
239	0x0d	13
240	0xc9	-55
241	0x05	5
242	0xfa	-6
243	0x1e	30
244	0x15	21
245	0xfc	-4
246	0x11	17
247	0xdd	-35
248	0xd7	-41
249	0xfc	-4
250	0xf6	-10
251	0xcd	-51
252	0xd4	-44
253	0xdb	-37
254	0xd8	-40
255	0x2b	43

tfl.pseudo_qconst7 i1 [32, 3, 3, 1]
0	0xae	-82
1	0xa0	-96
2	0x68	104
3	0x81	-127
4	0xeb	-21
5	0x58	88
6	0xb1	-79
7	0xf7	-9
8	0x7c	124
9	0x11	17
10	0xc9	-55
11	0x81	-127
12	0x50	80
13	0xf3	-13
14	0x8b	-117
15	0x57	87
16	0x62	98
17	0x00	0
18	0xf8	-8
19	0xde	-34
20	0x74	116
21	0x77	119
22	0x96	-106
23	0x84	-124
24	0x06	6
25	0x81	-127
26	0xe0	-32
27	0x0a	10
28	0x81	-127
29	0x8a	-118
30	0x6b	107
31	0x6a	106
32	0x73	115
33	0xb9	-71
34	0xc3	-61
35	0xf9	-7
36	0x0c	12
37	0xe1	-31
38	0x81	-127
39	0xf0	-16
40	0xe6	-26
41	0xf6	-10
42	0x0b	11
43	0x70	112
44	0x63	99
45	0x07	7
46	0x81	-127
47	0xf4	-12
48	0x81	-127
49	0xf0	-16
50	0x4d	77
51	0xa2	-94
52	0x26	38
53	0x2b	43
54	0x43	67
55	0x34	52
56	0x5a	90
57	0xe4	-28
58	0x04	4
59	0x18	24
60	0x81	-127
61	0x90	-112
62	0xb4	-76
63	0x89	-119
64	0xfc	-4
65	0x17	23
66	0x41	65
67	0x4e	78
68	0x10	16
69	0x12	18
70	0xee	-18
71	0x81	-127
72	0xcf	-49
73	0x2d	45
74	0xe3	-29
75	0x1d	29
76	0x2c	44
77	0xf6	-10
78	0xee	-18
79	0x0c	12
80	0x81	-127
81	0x4b	75
82	0x23	35
83	0x18	24
84	0x7f	127
85	0x02	2
86	0x8c	-116
87	0x4e	78
88	0x87	-121
89	0xcb	-53
90	0x8c	-116
91	0xc6	-58
92	0x81	-127
93	0x92	-110
94	0x18	24
95	0x3f	63
96	0x71	113
97	0xf4	-12
98	0x6b	107
99	0xaf	-81
100	0xd4	-44
101	0x3c	60
102	0x81	-127
103	0x37	55
104	0x48	72
105	0xc2	-62
106	0xcb	-53
107	0x33	51
108	0x12	18
109	0xc0	-64
110	0xa3	-93
111	0x19	25
112	0x11	17
113	0x81	-127
114	0xd9	-39
115	0x18	24
116	0x31	49
117	0x07	7
118	0x22	34
119	0x3c	60
120	0x0e	14
121	0x13	19
122	0x3f	63
123	0x81	-127
124	0x89	-119
125	0xb5	-75
126	0x13	19
127	0x23	35
128	0x3d	61
129	0xb7	-73
130	0x36	54
131	0x2f	47
132	0x81	-127
133	0xc6	-58
134	0x3b	59
135	0x48	72
136	0x13	19
137	0xdb	-37
138	0x0c	12
139	0x81	-127
140	0xdf	-33
141	0xbf	-65
142	0xd6	-42
143	0x2b	43
144	0x46	70
145	0xe5	-27
146	0x83	-125
147	0x2b	43
148	0xfd	-3
149	0xa9	-87
150	0xe0	-32
151	0x0e	14
152	0x81	-127
153	0xd8	-40
154	0xac	-84
155	0x81	-127
156	0x85	-123
157	0xcb	-53
158	0xde	-34
159	0xcf	-49
160	0x26	38
161	0x6d	109
162	0xc8	-56
163	0x01	1
164	0x1b	27
165	0x33	51
166	0x39	57
167	0x3d	61
168	0xe4	-28
169	0xb0	-80
170	0x81	-127
171	0xf1	-15
172	0x30	48
173	0x50	80
174	0x43	67
175	0x35	53
176	0xf8	-8
177	0xd3	-45
178	0x81	-127
179	0x9d	-99
180	0xe3	-29
181	0x14	20
182	0x77	119
183	0xdb	-37
184	0x81	-127
185	0x25	37
186	0xb7	-73
187	0x9d	-99
188	0x9c	-100
189	0x20	32
190	0x7f	127
191	0xaa	-86
192	0x7b	123
193	0xa0	-96
194	0xd8	-40
195	0xf9	-7
196	0x7a	122
197	0x28	40
198	0xf5	-11
199	0x38	56
200	0xd5	-43
201	0x0c	12
202	0xdd	-35
203	0x81	-127
204	0x52	82
205	0xdf	-33
206	0x74	116
207	0x81	-127
208	0x49	73
209	0xb2	-78
210	0xb9	-71
211	0x88	-120
212	0xcc	-52
213	0x4d	77
214	0xdb	-37
215	0x4e	78
216	0x33	51
217	0x11	17
218	0xc7	-57
219	0x48	72
220	0xfe	-2
221	0xcc	-52
222	0x49	73
223	0xd6	-42
224	0x81	-127
225	0x36	54
226	0x38	56
227	0x81	-127
228	0xe0	-32
229	0x33	51
230	0xb0	-80
231	0xfa	-6
232	0x24	36
233	0x61	97
234	0x81	-127
235	0x09	9
236	0x19	25
237	0xf6	-10
238	0x01	1
239	0x3e	62
240	0xc6	-58
241	0x7e	126
242	0x00	0
243	0x90	-112
244	0xc4	-60
245	0xe7	-25
246	0x9f	-97
247	0x5d	93
248	0x7f	127
249	0x2d	45
250	0x4d	77
251	0xb9	-71
252	0x81	-127
253	0x38	56
254	0x2e	46
255	0x0c	12
