tensorflow/lite/micro/examples/hello_world/models/custom_example_float.tflite (tflite, 3228 bytes, 5 tensors)

arith.constant f4 [1, 16]
000000 bd fe 05 3f 92 b2 bf 3e a9 a5 27 3f ab 74 f7 be
       0.52341825 0.37440926 0.6548715 -0.48331198
000010 da ff a1 be e2 66 e8 3e 5b 00 33 3f 0f af f3 be
       -0.31640512 0.45390993 0.6992242 -0.47594497
000020 67 14 3b bf b9 d2 c1 be 77 4b 31 bf 3c f2 b8 3e
       -0.73078007 -0.3785608 -0.69255775 0.3612231
000030 bc bc 01 bf b8 a2 83 be 93 26 03 3f cf 30 9d be
       -0.5067861 -0.25710082 0.51230735 -0.307013

arith.constant1 f4 [16, 16]
000000 7e 85 f7 3e 60 6a 05 3d 48 02 37 3e 9e 87 33 3f
       0.48344034 0.03257215 0.17871964 0.7012881
000010 cf f3 71 3e 59 fd 3b bf 66 8b 02 bf 01 b4 41 3f
       0.23628162 -0.7343345 -0.50993955 0.7566529
000020 72 ad b6 3d 58 27 a1 be 5c 75 7a be 14 a0 0a bc
       0.08919801 -0.3147533 -0.24458832 -0.008461017
000030 66 0b 34 3f 6e 78 77 bf 1f 88 80 3e 44 67 36 3f
       0.7032989 -0.96668136 0.25103852 0.7125132
000040 41 65 57 3f 1e 6a f2 3d 8b 8f a0 3e 24 ae 70 3e
       0.84138876 0.118366465 0.31359515 0.2350393
000050 18 67 1a 3d 8b 66 23 bf 62 c5 63 3f 76 e6 0b 3f
       0.037695974 -0.63828343 0.8897306 0.5464853
000060 a8 c5 e4 3d d7 a6 ee 3e ad 63 0f bf f7 1e 64 bf
       0.111705124 0.46611664 -0.5601147 -0.8910975
000070 c7 42 d6 3e 1c 68 be be 48 9e 29 3e 4a ec 8a 3f
       0.41847822 -0.37188804 0.16564286 1.085336
000080 6c fe 16 3e c4 c8 8d be 42 57 1a 3f e0 6d 16 3f
       0.14745492 -0.27692235 0.60289395 0.58761406
000090 f0 4a b3 3d 67 54 c2 be 88 68 a0 be 50 1a c2 3e
       0.087545276 -0.3795502 -0.3132975 0.379107
0000a0 14 8f 59 3e 2f 9e af 3e 88 b1 f2 be ba a1 6f 3f
       0.21245986 0.34300372 -0.4740107 0.9360615
0000b0 b7 22 47 3e 26 d6 d4 bc bf 00 b2 3e 0c ce d6 3e
       0.19446836 -0.02598102 0.34766194 0.41954076
0000c0 14 e4 ae 3e af 00 c8 be 6c 50 e1 be a4 25 fc 3d
       0.34158385 -0.39063022 -0.4400667 0.12311867
0000d0 2b a4 94 3e 76 94 b9 3e d4 07 0d 3e 84 a8 73 bd
       0.290315 0.3624608 0.13772517 -0.05948688
0000e0 79 d4 d3 be 2d 73 aa be a3 09 8a 3d 9b b3 ad 3d
       -0.4137304 -0.33290997 0.06740119 0.08481523
0000f0 64 64 04 3d a5 3b fe bd d7 34 51 3d cc 16 05 3e
       0.032322302 -0.1241372 0.051075783 0.12996978
000100 d0 2c 19 3e 74 da aa bc 5e a4 94 bf 6c f1 b8 3d
       0.14958501 -0.02085612 -1.1612661 0.090304226
000110 df 73 2d be 02 4e e2 3d 95 6e a3 3e fa 28 ee bd
       -0.16938733 0.11050035 0.31920305 -0.116289094
000120 9c 45 ef 3e f0 7c 44 3e a3 bb 42 3f 55 34 12 3c
       0.46732795 0.19188285 0.7606756 0.00892361
000130 97 79 e9 bb 35 a3 b5 be 9c 86 d1 3d 73 e2 9f 3e
       -0.0071250903 -0.3547608 0.10230753 0.31227455
000140 b0 87 1f 3d bc 9e 0e be 19 c3 cf 3d f7 00 ce be
       0.03894776 -0.1392774 0.10144634 -0.4023511
000150 6a 33 cd be c6 22 47 be 04 92 c0 bd 48 19 e9 3c
       -0.40078288 -0.19446859 -0.0940285 0.028454438
000160 e7 63 d4 be 9d 63 21 3e 3a 88 f6 3d 12 b6 85 be
       -0.4148247 0.15760656 0.12037702 -0.2611547
000170 41 67 67 3e 5e c7 d5 be 02 64 d4 bd 48 3a 2b be
       0.22597982 -0.41753668 -0.103706375 -0.16721451
000180 7d e2 f1 be 8f 28 45 3e e2 43 c7 b9 c3 13 55 3f
       -0.4724311 0.19253753 -0.00038006814 0.8323328
000190 fd 8e d3 3e 7a ea 05 3e f7 f6 c2 be 69 64 74 3e
       0.4132003 0.13077727 -0.38079044 0.23866428
0001a0 7f 1d 81 be d7 cc 9d 3e 5f d4 cb be 98 3d f1 be
       -0.25217816 0.30820343 -0.39810464 -0.47117305
0001b0 2b 2d 7f bf f2 16 3e bf e0 0e 9e bc dc 6a 65 be
       -0.99678296 -0.7425376 -0.019294202 -0.22404045
0001c0 8a 34 2d 3d 6b e6 a5 3e 04 ae 4d be ae ef 1c 3d
       0.042286433 0.32402357 -0.20085913 0.038314514
0001d0 5a d1 d6 be 61 26 06 3f 92 a0 b0 3e f7 c0 57 bf
       -0.41956598 0.5240231 0.34497505 -0.84278816
0001e0 e0 28 8c 3d 37 93 0d 3e a1 9e 36 3f a9 be 09 3e
       0.06843734 0.1382569 0.713358 0.13451637
0001f0 a3 14 c7 3d 4c 7f bf be 25 fb 93 be 94 f0 ab be
       0.09720733 -0.37401807 -0.28902546 -0.33581984
000200 22 98 74 bf 99 20 01 3f e9 e0 0c 3f 90 db 24 bf
       -0.95544636 0.50440365 0.55030686 -0.64397526
000210 4f 07 95 be 47 fa 11 3f e6 42 60 3f d2 93 83 bd
       -0.2910714 0.5702252 0.8760208 -0.06424679
000220 95 77 63 be 48 10 78 3e 26 42 5b 3e 95 86 49 be
       -0.22213586 0.24224961 0.21411952 -0.19680245
000230 b9 02 b2 3d a4 17 e7 3d f3 8c dc be 99 50 45 bf
       0.086919256 0.11283806 -0.43076286 -0.7707611
000240 d4 a7 08 3e e3 08 af 3d c6 6f 0d be ad 78 a8 bf
       0.13345271 0.08546617 -0.1381217 -1.3161827
000250 0c 76 40 3e 6f 26 26 3f 25 46 d4 3e a3 ac 96 3e
       0.18795031 0.64902395 0.41459766 0.29428586
000260 73 16 e3 3d be af c5 bd 70 e2 24 3d a6 40 f4 bd
       0.11088266 -0.09652661 0.04025501 -0.11926393
000270 19 7b b4 3e 02 ca 9e 3e 88 e0 3d be a7 18 9c bf
       0.35250166 0.31013495 -0.18542683 -1.2195023
000280 ba b4 b1 bf 31 a8 52 3e 35 8c 01 bf 31 1d 5b c0
       -1.3883278 0.20571972 -0.50604564 -3.4236567
000290 96 37 0c 3f d6 dc 1d 3d f3 da 2d be c8 1b 82 3e
       0.5477232 0.038540684 -0.16978054 0.2541182
0002a0 5e 2c 3a be db 6b f6 3e d7 fd cd bd 7c f9 2a c0
       -0.18180987 0.48129162 -0.10058182 -2.6714773
0002b0 f9 81 db be ad e2 3c bd c0 0d 49 be 93 15 bc bc
       -0.428726 -0.046114612 -0.19634151 -0.022959506
0002c0 c0 64 51 bc ec d9 34 3e bd a7 86 bd cc 17 72 be
       -0.012780368 0.17661256 -0.06574962 -0.2364189
0002d0 e9 0f 55 be 4f a5 9f 3e b6 ac 06 be 5b 5a ad 3e
       -0.2080685 0.31180808 -0.13151821 0.33857998
0002e0 65 0c d2 be 80 5c 90 be 81 06 a4 be 94 7e 95 bd
       -0.4102508 -0.28195572 -0.32036212 -0.072995335
0002f0 df 5a 38 3e b7 8c 0b be 3f 3a d5 be 0e 3a 9c be
       0.18003415 -0.13627897 -0.41646 -0.30513042
000300 c2 78 a7 be a2 78 d0 be 09 f4 7b 3e e1 2f 1f bf
       -0.32709318 -0.40717036 0.24604811 -0.6218243
000310 a8 29 7a 3d 54 4a e6 3e c1 71 3a 3f d4 54 b9 3d
       0.061074883 0.44978583 0.72829825 0.09049383
000320 de 00 db 3e 4f f8 84 3d ce a5 d5 3e 2d 76 b6 bd
       0.427741 0.064926736 0.4172806 -0.08909259
000330 25 1a 78 3d 7e 11 4f be 08 cd 88 3d 28 4f 48 be
       0.06057181 -0.20221516 0.066797316 -0.19561446
000340 78 0c 29 bd 87 95 0e be a4 52 dd be 5a 6d db bd
       -0.041271657 -0.13924228 -0.43227112 -0.107142165
000350 36 34 ce be 6f b6 ca be 1b cc 19 3c 32 32 37 be
       -0.4027421 -0.3959231 0.009387041 -0.17890242
000360 81 22 da bd ad 29 c8 be ae 95 8d be 23 b2 77 3e
       -0.10651112 -0.39094296 -0.2765326 0.24189048
000370 e8 bc 94 be b6 48 65 be 3e 5d 1b 3e 3a ee e1 bd
       -0.29050374 -0.22391018 0.15172288 -0.11031766
000380 43 82 a8 bc 39 47 4f bf 87 5d dc 3d 8e ed aa 3e
       -0.020569926 -0.8096805 0.107600264 0.33384365
000390 ea b4 e5 3d c9 86 01 be a6 2b d9 3e ef c2 17 3f
       0.11216147 -0.12649073 0.42416114 0.5928182
0003a0 32 83 f4 3e 7d 07 57 bf 30 6b 92 3e bf a2 1e 3f
       0.47756344 -0.839958 0.28597403 0.6196708
0003b0 2b 84 5c be 3a 4e d2 be ba e4 fe 3d 29 74 3a 3f
       -0.21534793 -0.41075307 0.1244597 0.72833496
0003c0 63 fd 7f 3e 7d 8e 72 be 03 fb 1f bf ff 4a bb be
       0.24999003 -0.23687167 -0.6249239 -0.36580655
0003d0 38 32 30 be ad 64 17 3f c1 c2 7e 3d bf 03 32 3d
       -0.17206657 0.59137994 0.06219745 0.043460604
0003e0 e5 12 c9 3e 8b 6f 10 3c 93 17 f9 bd 67 9d 05 be
       0.39272228 0.008815656 -0.121626996 -0.13048325
0003f0 ff c8 88 3e 81 a1 1b 3e 6c bf 6b 3d a6 1d c2 be
       0.26715848 0.15198328 0.0575556 -0.37913245

arith.constant3 f4 [16]
000000 3f e8 e3 3a 69 fb 57 3e 9e 01 11 3e 42 eb 45 bd
       0.001738794 0.21091999 0.14160773 -0.048320062
000010 24 06 39 be ed 3b 09 bd cb 2d 34 be 55 2e 57 be
       -0.18068749 -0.033504415 -0.17595594 -0.21013768
000020 1b f1 bb 3e 44 df 04 be d0 9f d8 39 7d 41 8e bc
       0.36707386 -0.12975794 0.000413178 -0.017365212
000030 b7 1b 72 be fa 34 5c bd f0 ee ab 3c c2 ed 44 be
       -0.23643385 -0.05376146 0.020987958 -0.19231322

sequential_1_1/dense_3_1/BiasAdd/ReadVariableOp f4 [16]
000000 e8 7b 44 be 17 ad 87 3e f7 72 7b 3e fd cb ac be
       -0.19187891 0.26499245 0.24555574 -0.3374938
000010 c9 b5 87 3d 43 c3 a7 be 6e ec b0 be 75 33 81 3d
       0.0662647 -0.3276616 -0.34555382 0.06308643
000020 b0 53 ab 3e 4f 6c de 3e 6f 54 61 be ca b3 32 be
       0.33462286 0.43442008 -0.22004865 -0.17451397
000030 52 52 19 3e c2 c8 13 3f f8 ef 9a bd 17 af a3 be
       0.14972809 0.5772821 -0.07565302 -0.3196952

sequential_1_1/dense_3_1/MatMul f4 [16, 2]
000000 6d bb fa b9 08 78 89 be ba a8 e8 be fc 8a d0 be
       -0.0004782336 -0.2684939 -0.45441228 -0.40731037
000010 b4 ad c7 3e 6c c6 85 bc b6 f4 11 3f a4 a1 03 3f
       0.38999712 -0.016329966 0.57014024 0.5141852
000020 3c 83 4f be 21 f9 ee be e3 64 03 bf b4 fd 97 3c
       -0.20264906 -0.46674445 -0.51325816 0.018553592
000030 64 9d c7 be 80 64 a7 3b 5f 82 8e 3e 1d 85 06 bf
       -0.38987267 0.005108416 0.2783384 -0.52546865
000040 33 9e 83 bf 5a b0 9e 3c d3 cf 7b 3c 2f 27 a7 bd
       -1.0282654 0.0193712 0.015369373 -0.081617706
000050 b5 b1 12 bf 24 fe 1e 3c ba 13 a2 bd 66 b2 8e 3f
       -0.5730241 0.0097041465 -0.07913919 1.1148193
000060 dc f9 34 bf 4a a7 e1 be a5 9d bd be d5 60 2b 3e
       -0.70693755 -0.44072944 -0.37034336 0.16736157
000070 29 ce 53 3d 7f d9 2d bf 88 b8 02 3f bb 27 5f 3d
       0.05171028 -0.6791 0.5106282 0.05448125
