tensorflow/lite/micro/examples/hello_world/models/custom_example_int8.tflite (tflite, 3416 bytes, 3 tensors)

tfl.pseudo_qconst1 i1 [1, 16] scale=0.0070073535 zero_point=0
000000 99 44 e9 c2 d7 53 bb 5e df 74 0e 38 7f 8d 6f 39
       -0.7217574 0.47650003 -0.16116913 -0.4344559 -0.28730148 0.5816103 -0.4835074 0.6586912 -0.23124267 0.812853 0.09810295 0.3924118 0.8899339 -0.8058457 0.77781624 0.39941916

tfl.pseudo_qconst3 i1 [16, 16]
000000 2e 3d 07 44 df f3 4b e0 f2 7f d3 0d 13 e2 e7 1b
       46 61 7 68 -33 -13 75 -32 -14 127 -45 13 19 -30 -25 27
000010 06 37 ff e7 2f e7 1d 3d 7f 20 f7 ec 24 d7 56 ee
       6 55 -1 -25 47 -25 29 61 127 32 -9 -20 36 -41 86 -18
000020 b7 81 09 f2 1d f1 fa 08 e5 c2 f7 f7 13 0d 0e e3
       -73 -127 9 -14 29 -15 -6 8 -27 -62 -9 -9 19 13 14 -29
000030 16 ef f2 95 4f 2b 93 81 ef 57 24 a9 b0 23 23 eb
       22 -17 -14 -107 79 43 -109 -127 -17 87 36 -87 -80 35 35 -21
000040 1c 08 f9 f7 f6 f3 ee e5 d4 ee cf 13 19 81 e2 ea
       28 8 -7 -9 -10 -13 -18 -27 -44 -18 -49 19 25 -127 -30 -22
000050 5c 33 f3 d3 b6 de e5 58 17 34 7f 09 a8 dd d6 d3
       92 51 -13 -45 -74 -34 -27 88 23 52 127 9 -88 -35 -42 -45
000060 dc 6f 2c ef d5 7f 37 f6 12 3c 27 23 0a fb f6 de
       -36 111 44 -17 -43 127 55 -10 18 60 39 35 10 -5 -10 -34
000070 66 f7 7f 09 1c a6 e8 1d 22 0e 50 54 31 6f e8 d1
       102 -9 127 9 28 -90 -24 29 34 14 80 84 49 111 -24 -47
000080 1b c7 81 1d 4a 9c 50 d7 04 fd 27 b1 8b 89 08 d7
       27 -57 -127 29 74 -100 80 -41 4 -3 39 -79 -117 -119 8 -41
000090 2a d0 f2 53 ee e5 07 ff 22 d4 3f d4 11 7f 3b 4a
       42 -48 -14 83 -18 -27 7 -1 34 -44 63 -44 17 127 59 74
0000a0 a3 8b a8 99 e2 c4 35 81 26 bc 07 13 8c c0 dc ce
       -93 -117 -88 -103 -30 -60 53 -127 38 -68 7 19 -116 -64 -36 -50
0000b0 ec 28 f1 07 15 01 df cf 4a 1f 07 31 7f 29 63 24
       -20 40 -15 7 21 1 -33 -49 74 31 7 49 127 41 99 36
0000c0 fe cf 2b ff 3b 23 0b fa c9 ea e2 97 19 81 b8 27
       -2 -49 43 -1 59 35 11 -6 -55 -22 -30 -105 25 -127 -72 39
0000d0 2a 22 33 12 c1 1d 3c f1 fd 7f f1 04 f8 ea ed ea
       42 34 51 18 -63 29 60 -15 -3 127 -15 4 -8 -22 -19 -22
0000e0 e5 c4 48 4e 1a 13 93 3d 66 b7 e6 47 74 7f 39 ca
       -27 -60 72 78 26 19 -109 61 102 -73 -26 71 116 127 57 -54
0000f0 50 16 87 1e e5 22 34 2e 4c ac 6a 30 3b 7f d3 e9
       80 22 -121 30 -27 34 52 46 76 -84 106 48 59 127 -45 -23

tfl.pseudo_qconst5 i1 [16, 2]
000000 78 81 81 01 ae 81 81 ea 04 81 81 13 81 de 31 81
       120 -127 -127 1 -82 -127 -127 -22 4 -127 -127 19 -127 -34 49 -127
000010 fa 7f 81 01 7f d8 81 99 43 7f 7f 05 02 81 7f d9
       -6 127 -127 1 127 -40 -127 -103 67 127 127 5 2 -127 127 -39
