tensorflow/lite/micro/examples/hello_world/models/stuff_toy_float.tflite (tflite, 18652 bytes, 10 tensors)

arith.constant f4 [16]
00000000: b4b3 c03e b518 253d b649 353e 57d5 993d
00000010: 6a3d 493e 209e bbbd 9927 063e 1eae c83d
00000020: 4dbd a03e 6eb2 9d3d 55b3 8b3d b470 d23d
00000030: 33a9 143e f25e 063e a86f 903d da74 703e
0.37637103 0.040306766 0.177039 0.075113945 0.19652334 -0.09161019 0.13101043 0.09798835
0.31394425 0.077000484 0.06821314 0.10275403 0.1451767 0.13122156 0.07052547 0.23482075

arith.constant1 f4 [16]
00000000: b9a9 ab3e 8957 c83d 2e6b c53e 718e a3bc
00000010: a5e4 9dbc d315 f63d 7311 723d 3569 42bd
00000020: 6f56 223a 1eaa 82bc ae9b 013e 8a46 1c3d
00000030: 5b09 91bb 2dd3 b63d 71c9 1b3f 335b 5e3e
0.33527926 0.09782321 0.38558334 -0.019965382 -0.019274065 0.120158814 0.059098672 -0.047463614
0.0006192689 -0.015950259 0.12657043 0.03815321 -0.004426164 0.08926997 0.6085425 0.21714477

arith.constant2 f4 [16, 3, 1, 16]
00000000: 1531 923e 4019 ccbd a087 0e3c c4a8 053d
00000010: bb2d 6cbd 7a5f 73be 81e8 0fbf cb09 473c
00000020: 996e 71be 642e 5e3d 2519 9abd 60e2 90be
00000030: 7b36 3abe a94e 28bf 0d58 a33e 7049 c43e
00000040: f1fb 4b3e 7d0c 5cbd 478d 5dbe e532 4bbe
00000050: 9e50 43bd a063 3c3d a4b8 29bd dd35 823d
00000060: 5467 063c eef7 163d ca04 c23d 0dbd 9b3e
00000070: 4252 97be a0f0 bdbd 0a39 b1be dab6 f5bd
00000080: 9eac 8c3e 1cde 2d3d 7de5 28bd 85a9 923d
00000090: a20e 263e 699f f7bd 8fd5 8b3e 4124 8dbe
000000a0: a90c 13bd 85c6 6bbe 70f1 e53d 0016 5f3e
000000b0: 8d12 d03d 6988 dd3d 795b 90be b2cd a33e
000000c0: d203 3e3e 2896 963e 5ae1 11be 3917 753e
000000d0: 3650 36be 6f6a f7bd ce98 89be 97b5 0b3e
000000e0: 4a48 9e3d d808 853d 8aed 4d3d ad21 dfbe
000000f0: 7235 0cbd 358f d9bd 2533 143f 2db9 e53d
00000100: 9e51 033d faa1 853d aa40 1a3d 7563 623e
00000110: 362d 87be b298 453e 4f04 c1bd ac69 e4bd
00000120: a4c1 d0be 049d 6ebe 5b04 a63e 4c9f 9dbd
00000130: 3393 8b3e 92b4 f83d 2f05 cdbd e080 983e
00000140: bbfb babc a459 a03e 8804 18be 50ae 84bd
00000150: c0bc 993e 6d0c 893d 8539 f2bd 49e3 d43d
00000160: 8177 a23e 02af 82bd aa5a e6bc bd47 09be
00000170: 7c62 ae3d cb19 1c3d 9003 2ebf 6e85 423e
00000180: 5f94 ee3d c48a 713e 6dd7 e93d 75aa 463e
00000190: 0c5f 25bd ea6d 523e 417b 833e 4c7d 7fbe
000001a0: 38a5 1fbe 884f 763e 7fa0 1dbf d616 9fbc
000001b0: 6776 023d ad73 04bf 1792 8f3e dbc2 1b3e
000001c0: 120d 8cbe bc01 febd 3c4b 883d 1df1 9dbd
000001d0: 53ce c5bd ddea 4bbd 8fd1 5ebe 7c15 00be
000001e0: c166 f8bd 6c34 8f3d 0161 453e c843 9dbd
000001f0: 2365 18be b6ed 54bd 9676 df3e e029 ed3b
00000200: 7d3e c9bc cc0c 593e d4b4 81bd 3b89 b13b
00000210: fa61 5dbd 5107 243d fe7c b1bd 2b4e 31be
00000220: fa49 44be b6dc 003e 1169 35be a173 323e
00000230: 4604 8d3e 1072 d8bd 97f2 06bf f541 bd3e
00000240: 462a 463e f0fc 84be a1a6 25be 7904 68bd
00000250: adf9 7d3e 8e3f 41be 436e d8bd 0507 40be
00000260: 66fc 27bc 7d3b 143e 3d33 6dbd f476 4dbe
00000270: 1b57 98be 5be7 bbbd bd9d 0e3e ec55 72be
00000280: 16ca 3e3d faae a8be a1ef 1abd b29a 423e
00000290: b76a f53d af14 143e f758 933e 3f23 713c
000002a0: b267 f33d 6d7a 36be 68d9 a5be 0603 693b
000002b0: 7834 f5be 88ab dcbd ac96 633e d74b 943b
000002c0: b521 aa3e d440 1a3e 39f5 04bd afe2 16be
000002d0: bc5e f33a 66b9 413b 433a 5b3e 5c06 e2be
000002e0: 1c1b 0cbe 3501 193e 8dcd cf3d dfe1 793d
000002f0: 751c 61be d8fa 633e b4ca a93e 3868 023b
00000300: fe1b 843d 674c acbd eedd 90be 8411 2fbe
00000310: 23db 613d ddd4 c83c 1ece d5be 9de2 57be
00000320: 907e da3c 1646 d2bc d8fa 843c 0cdc d13d
00000330: fa21 d4bc a394 81bd 03b9 123f f664 2c3e
00000340: 43e4 683e 69dc 243d ef55 0a3e ebc3 98bd
00000350: e8ea 74be 4927 96bd 6371 0a3e c945 1a3d
00000360: afeb d33c 64dc e1bd 437a ce3b 4842 73bd
00000370: efd1 23be 73b2 7dbe 8223 09bf 97fe 9dbe
00000380: b4df 613e 4996 3d3e f135 33be c3e9 2ebc
00000390: eaa6 5f3e 2b4d f9bd f27f 843e 7585 a8bd
000003a0: d9e7 06be e7a6 933e 8b23 24bc d4ac 5a3e
000003b0: a8a8 133d cbc1 a9bd 16b6 803d b2a0 cfbd
000003c0: b919 b7be 595b 14be 2a8f 4dbd d3b3 c2bd
000003d0: 29ad d63d df22 fdbd 18d9 8e3c 1f66 98bc
000003e0: 5fde 98bd 3079 babd a869 553d e3e9 3bbe
000003f0: 9af8 3cbe 9e53 be3e e050 9abe 4ebe b6bd
0.28553072 -0.099657536 0.008699328 0.03263165 -0.0576608 -0.2376689 -0.5621415 0.012148331
-0.23577346 0.05424346 -0.07524327 -0.2829771 -0.18184845 -0.65745026 0.31903115 0.38337278
0.19920327 -0.053722847 -0.21635924 -0.19843633 -0.047684304 0.045993447 -0.041435853 0.0635793
0.008203346 0.036857538 0.0947357 0.30417672 -0.29554945 -0.09274411 -0.3461383 -0.11997767
0.27475446 0.042448148 -0.041234482 0.071612395 0.1621652 -0.12090952 0.2731137 -0.27566722
-0.035900746 -0.23024948 0.11227691 0.21785736 0.10159788 0.10817034 -0.28194788 0.3199287
0.18556145 0.29411435 -0.14246121 0.2393464 -0.17804036 -0.120808475 -0.26874393 0.1364349
0.07728632 0.064958274 0.050275363 -0.4358038 -0.034230657 -0.10623018 0.5789054 0.1121696
0.032060258 0.06525035 0.037659325 0.22108252 -0.2640168 0.1929653 -0.0942465 -0.11152968
-0.40772736 -0.23302084 0.32425198 -0.07696399 0.27260742 0.12143816 -0.10010754 0.29785824
-0.022825113 0.3131839 -0.14845479 -0.0647856 0.30026817 0.06691823 -0.11827377 0.10394914
0.317318 -0.06381036 -0.028119404 -0.13406272 0.08514878 0.038110536 -0.67974186 0.18996212
0.11649393 0.23588091 0.11418042 0.19400962 -0.040373847 0.20549741 0.25679973 -0.2495014
-0.1559037 0.24053776 -0.6157302 -0.019420069 0.0318512 -0.5173901 0.28041145 0.1521105
-0.27353722 -0.124026746 0.06654975 -0.07712004 -0.09658494 -0.04978453 -0.21759628 -0.12508196
-0.12128974 0.069924206 0.19275285 -0.07678944 -0.1488233 -0.05198451 0.4364516 0.007237658
-0.02456593 0.21196288 -0.06333318 0.0054179705 -0.054048516 0.04004604 -0.086664185 -0.17314975
-0.19168845 0.12584195 -0.17715861 0.17426921 0.27542323 -0.10568631 -0.5271391 0.36964384
0.19352064 -0.25974226 -0.16176845 -0.05664489 0.24802275 -0.188719 -0.10567906 -0.18752678
-0.010253048 0.14475818 -0.057910193 -0.20064908 -0.29753956 -0.09174987 0.1392736 -0.23665589
0.046579443 -0.32945997 -0.037826184 0.19004324 0.11983245 0.14461015 0.28778812 0.014717876
0.11885013 -0.17820139 -0.3239243 0.003555478 -0.47891593 -0.107749045 0.22225446 0.0045256424
0.3322884 0.15063792 -0.032460425 -0.1473491 0.0018567662 0.002955997 0.21408944 -0.44145477
-0.13682216 0.14941867 0.101466276 0.061006423 -0.21983512 0.22263658 0.33162463 0.0019898545
0.064506516 -0.0841301 -0.2829432 -0.17096525 0.055140626 0.024515564 -0.41758817 -0.2108254
0.026671678 -0.025668185 0.016232893 0.10247049 -0.025895108 -0.06327178 0.57313555 0.16835389
0.22743325 0.040249262 0.13509344 -0.074592434 -0.23917735 -0.07331712 0.13519816 0.03766421
0.025869219 -0.11028364 0.006301196 -0.059389383 -0.15998052 -0.24775104 -0.53569806 -0.308583
0.22057992 0.1851436 -0.17501046 -0.01067585 0.21841016 -0.12172922 0.25878865 -0.0822858
-0.1317438 0.28838274 -0.01001824 0.21354991 0.036049515 -0.08288916 0.0628473 -0.10138072
-0.35761812 -0.14487971 -0.05018536 -0.09506955 0.104822464 -0.12360167 0.017437503 -0.018603383
-0.07464289 -0.09105146 0.052102715 -0.1835094 -0.18454209 0.3717317 -0.30139828 -0.089230165

arith.constant3 f4 [16, 1, 2, 16]
00000000: e5c2 e4be e5cc 5ebe 6f14 953c cfa9 f73c
00000010: c4ed a4be 75d1 a23e 6d63 8dbe bc19 563c
00000020: 2298 30be 586e 5c3d 26fb 223e c4ac b1be
00000030: 5de7 27bd a4a3 51bd 7b40 443e 5ac5 2ebe
00000040: f400 de3d bfea 6abd 4529 3bbe fa02 e9bc
00000050: c97d 393e 3999 d7bd 5392 80be 4fe5 2e3e
00000060: 098e a83e b8a1 56bd 58b0 9bbe 8644 8b3e
00000070: dcfb 5cbe bd5c b9be afc3 983e d934 153e
00000080: 1380 8bbe 8150 11be bd93 783e 99aa c83e
00000090: 98a1 893d a3ad 803e a531 9abe e39d 8abe
000000a0: fee5 3c3e 2258 c3bd e1bd bb3e 5ad1 d73d
000000b0: c32e 2fbe a6a3 1b3e 456f 183d 06b9 b6bd
000000c0: c5c2 b3be 311f 823d 959e d33d db9a a73d
000000d0: 89d1 8fbd 25d5 a1bd 122a b0bd 6af3 2e3e
000000e0: 985f 95bd b8d7 e33d 4177 8dbe d8eb 923d
000000f0: 2fe2 50bc fd43 4f3e 27d4 97bc 85fb 673c
00000100: 11ad 68bb 58ac 1f3e d2f2 813e 6c27 15bc
00000110: a9f5 01be 5888 2c3d a738 9d3d a61f 9e3e
00000120: 76e6 10be c6f8 233e 4eae 73be 920f b63c
00000130: 1515 603e 2e91 d33e e518 6abe ecd7 8b3e
00000140: 727a d63d 8f12 27be b67e b1bd 99b0 8abe
00000150: 15c3 71be 1d68 dbbe 38b4 713e c323 82be
00000160: 9500 c3bd 4454 a43d a222 dabe 5b52 dd3d
00000170: 838e ce3d e00d 4ebe a1d6 8fbc 1398 ac3e
00000180: 4d60 8a3d b25c 5abe 4481 3fbd a26e 863e
00000190: c41a 313d 21c4 2ebe 2a11 4abe a214 87bd
000001a0: 4090 52be 6065 3b3e 725a 2b3e 3144 b03c
000001b0: 5a54 353b 6953 893e c626 303c b93b b5bd
000001c0: 4ca5 7ebe e1ba 0bbe a72f 96be f4e6 98be
000001d0: 341a f0bd 3f03 90be ab17 8fbe 5141 08be
000001e0: 7fa5 8f3e 3c75 2f3e 6408 98bd d789 103e
000001f0: 3b56 a6bd 8a4d 81bd c5d0 eb3b 7ba2 06be
00000200: 171c 083e ef00 95be 6333 8dbe 09a0 8dbd
00000210: ddcd 91bc 0b4a 85be 6710 163e 966c 683d
00000220: 6327 dcbd 6ad0 84bd 6177 c7be f8db 143e
00000230: 829f 06be e082 1dbe 9b42 0abe b0f8 f63d
00000240: 31e3 843e e80f 2f3e d3c6 18bd 4708 883e
00000250: 156c a03e a412 01be dd9d 243e 50b1 323d
00000260: b9b6 143c 80a6 023b 04af 903d b0e3 6a3e
00000270: 26bb 9abe 02a2 74be f0e7 833e 91b6 a4bc
00000280: 18d1 a3be adb6 edbd 2da5 44be f42d 5cbd
00000290: 49af a9be 21f3 a93d 29bc 433e 24d8 c7bd
000002a0: cf11 1fbd 995a 9a3e 73dc 6e3d 7e29 173d
000002b0: 82b0 8c3e 7938 ee3d 1d4a 72be 9e30 f43c
000002c0: 2585 933e f850 27bc 3d49 43be 0c5a 903e
000002d0: 3fcc 063d bd61 8ebe c905 6ebd 1b76 903d
000002e0: c681 1ebe e0c2 fcbd 51cb 943e 466d 8f3e
000002f0: bfba a93e c3e8 883e a102 1bbe 5a12 883e
00000300: 9724 4c3e 6e30 563e df74 dbbd 1c7e 903e
00000310: fb60 313e 9570 f6bd 6bde 00be 057c 3a3e
00000320: 41b2 e03c bc63 87be ecc9 09be 7668 493e
00000330: 0a39 4cbd 1a4f 7cbd a7de 153e fef6 07be
00000340: b412 9c3e 9edb a53e a17a dcbe 8c79 95be
00000350: 8453 0d3e 830b b5bd c401 c4bd 2467 143e
00000360: c0e9 36be a62f 5d3e 8b0f bcbe 178a 903e
00000370: 9db4 ba3c 4ae3 74bb 7482 4f3e 0eca 97be
00000380: eec0 9a3d d636 b23c 06c2 bcbe 3d8b 7b3e
00000390: 5654 2ebe 93ee 4ebd 53ce 453e 2ee5 97be
000003a0: 8d3c 9cbd 4523 31be b5ba 1a3e 0044 033d
000003b0: fb1d e83e ac65 513c 1c43 c0bd 2c82 983d
000003c0: 3d3a febd 8d92 88be 80a6 8dbe 23d8 3b3e
000003d0: a8e6 8dbc 47cb 2c3e d918 1d3c 0c37 e4be
000003e0: 15ab 3abe b8be 623d 1c2a cebd 6c14 b73e
000003f0: 1cb0 a43e 02d9 8bbd 0019 563d b907 1d3e
-0.44679943 -0.21757849 0.01819822 0.030232338 -0.3221265 0.31800428 -0.27614918 0.013067659
-0.17245534 0.05381617 0.15916118 -0.34702122 -0.04099213 -0.05118145 0.19165222 -0.17067471
0.108400255 -0.057352778 -0.18277462 -0.028443802 0.1811439 -0.10527272 -0.25111637 0.17079662
0.32920864 -0.05240032 -0.30407977 0.27200717 -0.21580452 -0.36203566 0.29836795 0.14570941
-0.2724615 -0.14190866 0.24275108 0.39192656 0.06720275 0.25132474 -0.30116 -0.27073583
0.1844711 -0.095382944 0.36668304 0.105379775 -0.17107682 0.15199146 0.03721549 -0.08922009
-0.35109535 0.063536055 0.103329815 0.08183833 -0.070223875 -0.07901982 -0.08601774 0.17085043
-0.07293624 0.111251295 -0.27630046 0.0717389 -0.012749239 0.20240779 -0.01853378 0.014159088
-0.0035503546 0.15593088 0.2538057 -0.009103637 -0.12691368 0.042122215 0.07676821 0.3088352
-0.14150414 0.16012868 -0.2379696 0.022224221 0.21883042 0.413217 -0.22861059 0.27313173
0.10472573 -0.16315673 -0.08666746 -0.27087858 -0.23609574 -0.4285287 0.23603904 -0.2541791
-0.095215954 0.08023885 -0.42604548 0.10806724 0.10085776 -0.2012248 -0.017558398 0.33709773
0.06756649 -0.21324423 -0.046754137 0.2625628 0.043238416 -0.17067005 -0.1973311 -0.06595732
-0.2056284 0.1830039 0.16733721 0.021516891 0.0027668686 0.2682145 0.010751432 -0.08849282
-0.24867743 -0.13645507 -0.2933323 -0.29863703 -0.11723748 -0.28127477 -0.27947745 -0.13306166
0.2805595 0.17134565 -0.074234754 0.14115082 -0.08121916 -0.063136175 0.007196518 -0.13147919
0.13291965 -0.29102275 -0.27578267 -0.0691529 -0.017798359 -0.26033053 0.14654694 0.05674418
-0.107497 -0.06485064 -0.38958266 0.14537036 -0.13146785 -0.15381956 -0.1350197 0.12059152
0.25954583 0.17095912 -0.03729899 0.26568815 0.3133246 -0.12604767 0.16075845 0.04362613
0.009076768 0.0019935668 0.070646316 0.22938418 -0.30220908 -0.23889926 0.25762892 -0.020106586
-0.31995463 -0.11607108 -0.19203635 -0.05375476 -0.33141544 0.08298326 0.19114746 -0.097580224
-0.038835343 0.30147246 0.058315706 0.036904804 0.27478415 0.11631865 -0.23661084 0.029808339
0.2881252 -0.010212176 -0.19070907 0.281937 0.032909628 -0.27808943 -0.058110986 0.07053777
-0.15479192 -0.12341857 0.29061368 0.28013057 0.33150288 0.26740083 -0.15137722 0.265765
0.19935833 0.20916912 -0.10715651 0.28221214 0.17322151 -0.12033192 -0.12584846 0.18211372
0.027428748 -0.2644328 -0.13455933 0.19668755 -0.049859084 -0.061598875 0.14635716 -0.13277814
0.3048302 0.32394117 -0.43062308 -0.29194295 0.1380139 -0.08840086 -0.09570649 0.1449247
-0.17862606 0.21600208 -0.36730608 0.28230354 0.022791201 -0.003736692 0.20264608 -0.29646343
0.0755633 0.021754663 -0.36866778 0.24564834 -0.17024359 -0.05052049 0.19316988 -0.29667038
-0.07628737 -0.1729861 0.15110286 0.03204727 0.45335373 0.012780588 -0.093878 0.07446703
-0.12413452 -0.2667431 -0.27666092 0.18344168 -0.0173219 0.16874419 0.009588444 -0.44573247
-0.18229325 0.055357665 -0.100666255 0.35757768 0.3216561 -0.068285 0.052269936 0.15334977

arith.constant4 f4 [7, 32]
00000000: 9420 f8bd a95f 993e bb4a b03e d117 efbe
00000010: c12c f7be cdd4 283e 8b7a 17bd b460 723e
00000020: ea37 033f 7b19 903d 7795 033e 5259 573e
00000030: 09d0 0b3e 4006 893e eb81 c43d bec6 28be
00000040: 8a68 bcbe df59 953e e921 003e 049b 67be
00000050: 837c 153e e984 21be 85ed 833e 88f3 aa3e
00000060: cf94 abbe 2839 a9be 5057 d3bd af8f 253e
00000070: 04dd a63d 603b 803e 5c9b a53e eeec 54be
00000080: 91d5 59bf e305 a63e 2dcc b0be 098d 2fbe
00000090: caf3 d0be 8b9a f5be bd39 843d dac3 28bf
000000a0: 57b6 b8be 8931 04bf 4a36 853e 8679 f4be
000000b0: 14fb 963e 273f debe bd40 773e d34b 5fbf
000000c0: 2972 0dbf 4c4c b93d 0cf9 0d3e 2d61 7cbf
000000d0: 56b5 993d d386 113f 144d 12be 1bd4 953e
000000e0: 7490 763e 1cb8 52be 3a9a fdbe 2add 05bf
000000f0: c160 4abe db88 873e 8f91 74be 07ed 17bd
00000100: 4de3 7abe e054 bebe 1ab1 1fbf 8e40 b9be
00000110: 5339 e13e 54c3 e5be a8e9 c33d 25e2 053d
00000120: 6215 9dbd 8a4a bbbe 544a bebc 42cd a23e
00000130: 3fb4 5bbe 757a 99be cb19 26bf 820e cfbe
00000140: 2041 f9be f5cd d4be bb71 0ebe 4827 05bf
00000150: 7508 583e 9590 e4bd 42a8 933e f06c 233e
00000160: 7ef3 cd3e 15df 613e 7434 09bd e0f6 123e
00000170: 22a1 25be 5c67 f7be ecb1 13be 67e8 4e3e
00000180: 1a30 9d3e f6a7 75be b4cd b8be aaaa 183e
00000190: 58a2 a53e 77bb e1be eb80 1dbf d8df 4c3e
000001a0: 8514 ef3d 7103 a73e a8ec 26bf 35e3 0fbe
000001b0: a7cc 27bf 7559 62bd 48f1 abbe e2f2 033e
000001c0: 1b5f c53e e760 893e e7ff 9fbc 4475 8f3e
000001d0: dded 41be 0504 003f 70db 25bf e5ed a83e
000001e0: 2ac3 a3be 82fa 463d 080a 8d3d a97e 48be
000001f0: 80f6 12bf 3488 1dbc 13fc 803e c0e6 c4be
00000200: c17a 823e 45bd 9f3e 13bb e13e 6167 853d
00000210: 401f f0bd 9d90 583e e67c 44bf 55fa 1f3e
00000220: 3870 1ebf 0b69 853e eff2 db3d 580b d2be
00000230: c692 83be e4a0 a03d cd2c 833e eafc 0c3e
00000240: 4ff7 80be f0c4 b6be 6ab4 d2be 6a4b 703e
00000250: 5940 45bf b4a6 88be 5715 e3be c52e c2bd
00000260: d33e 16bf 4d01 bd3b ef9b c03e 6031 53bd
00000270: 6e42 973e 4f02 5eba 2d76 92be 9663 173e
00000280: 7f84 38be 7a17 a5be 9629 11bf 7fc0 a83e
00000290: 11e1 31be 8bbb f5be c65e edbe 10e0 06bf
000002a0: adc0 0abe dcfb debe b258 0ebf b92f 9abe
000002b0: bedc 8fbe dda1 b73e 8536 9fbe 3ecb 633e
000002c0: 274a 17bf e2ab 943e 8865 373e c417 40bf
000002d0: cfe0 d6be c5d3 b4be 831c e2be 0e7b c53e
000002e0: 2d03 853e 1553 a83e e76d 16bf 6ff8 12bf
000002f0: 48cf febe 7e58 7bbe 2aa5 bebe eea6 d0be
00000300: cc4f be3e 2184 a73e 5ac7 91be c684 2c3e
00000310: 01bb dcbd 4f68 6a3e dee7 2dbd 356a 2ebf
00000320: 3e01 8ebe a578 793e ed53 0ebf 49b7 cbbe
00000330: 6788 213e 75ac c1be 8dd9 883e 8a64 20bf
00000340: cd29 3f3e 3520 9bbe 2ed2 57bf a0ae 79be
00000350: 5dbc 2d3c 1472 4bbe 9729 2b3e 193a b8be
00000360: 0de5 b3be f183 ae3e ac04 0dbe 722e 80be
00000370: 46de ae3e 7431 f9bd 2490 8b3e 39b4 953e
-0.12115589 0.29955795 0.34432015 -0.46697858 -0.48276332 0.16487427 -0.0369821 0.23669702
0.51257193 0.0703611 0.12849985 0.21030167 0.13653578 0.2676258 0.095950924 -0.16482064
-0.36798507 0.2917013 0.12512936 -0.22617728 0.14598279 -0.15773357 0.2576715 0.33388925
-0.3351197 -0.3305142 -0.10319388 0.16168092 0.08147624 0.250453 0.32345092 -0.20793507
-0.850915 0.32426366 -0.34530774 -0.17143644 -0.40810996 -0.4796947 0.06456325 -0.65923846
-0.36076614 -0.51638085 0.26017982 -0.47748965 0.29488432 -0.43407556 0.2414579 -0.87225074
-0.5525232 0.090477556 0.13864535 -0.9858578 0.0750529 0.5684635 -0.14287215 0.29263386
0.24078542 -0.20578045 -0.49531728 -0.52290595 -0.19763471 0.264716 -0.23883651 -0.03709128
-0.24500771 -0.3717413 -0.6237961 -0.36182064 0.43989047 -0.44875586 0.09566051 0.03268637
-0.07670094 -0.36580306 -0.023228802 0.31797224 -0.21455477 -0.2997624 -0.64883107 -0.40440756
-0.486825 -0.41563383 -0.13910572 -0.52013063 0.21096976 -0.11160389 0.28839308 0.15959525
0.40224832 0.22057755 -0.03349729 0.14351988 -0.16174749 -0.48321044 -0.1442334 0.20205842
0.3070076 -0.23989853 -0.3609444 0.14908853 0.3235042 -0.44088337 -0.6152484 0.20007265
0.11673836 0.32619813 -0.6520486 -0.14051516 -0.6554665 -0.055261094 -0.3358252 0.12885621
0.38549122 0.26831743 -0.019531203 0.28019154 -0.18938394 0.50006133 -0.6478796 0.32994
-0.31984836 0.048578747 0.06886679 -0.19579567 -0.5740738 -0.009614993 0.25192317 -0.38457298
0.2548428 0.3119909 0.4408804 0.065138586 -0.117247105 0.21148916 -0.7675308 0.15622838
-0.6188998 0.26056704 0.10739695 -0.4102428 -0.25697917 0.078431875 0.25620118 0.13768354
-0.2518868 -0.35697126 -0.4115327 0.23466268 -0.7705131 -0.26689684 -0.44352219 -0.09481577
-0.5868961 0.0057679773 0.37618968 -0.05156076 0.2954287 -0.0008468972 -0.28605786 0.14784083
-0.18019293 -0.32244474 -0.5670408 0.32959363 -0.17371012 -0.47994646 -0.4636137 -0.5268564
-0.13550062 -0.43551528 -0.5560409 -0.30114534 -0.280981 0.3586568 -0.31096283 0.222455
-0.5909752 0.29037386 0.17909825 -0.75036263 -0.4196839 -0.35317817 -0.44162378 0.38570446
0.25978985 0.32875887 -0.5876145 -0.5741033 -0.49767518 -0.24545476 -0.37235385 -0.40752357
0.37170255 0.32717994 -0.28472406 0.16847524 -0.10777856 0.22891353 -0.042457454 -0.6813081
-0.27735323 0.24362428 -0.5559681 -0.39788273 0.1577469 -0.37826887 0.26728478 -0.6265341
0.1866829 -0.3029801 -0.84305084 -0.2438302 0.010603991 -0.19867736 0.16715084 -0.35981825
-0.3513569 0.34085038 -0.13771313 -0.25035435 0.34153956 -0.121676356 0.27258408 0.2923906

arith.constant5 f4 [32, 64]
00000000: 3d09 fdbc 1f94 d73d 02a9 ae3d e550 353d
00000010: 1b78 b03d 431f 40be 6ce0 1ebe 35f4 27be
00000020: 68aa 273e 3967 0a3e 2553 e2bd a779 19be
00000030: 9500 dfbd 9b65 f43d 64b1 94be 8458 27be
00000040: 636d 07bb e43e 6bbe fff1 7fbe 951b dbbc
00000050: be43 3cbe c935 b4be 3f44 70be 55d3 4d3d
00000060: a767 803e 4ae1 063e b213 72bd 756f fbbe
00000070: 9867 d9be 7a0b d5be f824 6c3e bc95 6dbc
00000080: d4ef b43d cb1d a63e 399a fcbd 0cf6 a73b
00000090: 8b39 383e a632 22be 60e5 a13e 9847 4bbe
000000a0: 21a1 923d c63a d13d 406c 22be bd5e 40be
000000b0: fa48 48be 4eec 79be fea7 773e 67a3 8c3d
000000c0: 93c0 0e3e cf06 40bd 54bb 753e 5a98 44bd
000000d0: 4110 033c 9439 7ebb 1478 bd3e fe60 7f3e
000000e0: 776d 31be 68a1 b73e 48e1 813e 2b64 183e
000000f0: b47a 55be 19dc 733d cc73 223c c87c 92bd
00000100: 5349 663e b185 ee3c 040d be3e a1da 03be
00000110: adc3 98bd b033 f53d 4a2f a8bd 2f62 033e
00000120: bf91 033e d064 b23d e3e3 f6bc 4556 7abd
00000130: c56e 0e3e 807b 90be a602 8cbd 0737 203e
00000140: 0766 a2bd 7e28 4a3d bffd a13e 8f98 99bd
00000150: bfd5 8d3d 0da9 1e3e 3c73 34be 49b9 c63d
00000160: 1d39 1cbd ec5e b73e a249 07bd c518 973d
00000170: 2987 c63d 6eac 163e 58e6 7dbe f0eb 423e
00000180: 2166 7cbd c60a 5d3e b39b 643e 5424 4dbd
00000190: 4e6b 2c3e 7151 ab3d d76e 61bc 6cc7 11ba
000001a0: aaaf 96be da19 ba3e f4ae 2a3e 4460 0ebe
000001b0: 0712 a1be de33 4dbd 250c a9be b8aa e7bc
000001c0: 610c 593e 64e1 83be 2528 d5be 4ea7 2e3d
000001d0: b7c6 5c3e 5d84 1a3f 9a12 edbe d2dc 543e
000001e0: bd7a b03d e42d 1a3e 9fbb 85be 9b40 b4bd
000001f0: 3a0e 05bf 3f08 5b3e 71a7 99be fbe4 8fbd
00000200: 67fd 06bf 473f 7dbe d860 37be e22d 9abe
00000210: 5476 29be 9685 8cbd 9324 12be 9e2c 963e
00000220: 4bef eebe 9b55 a7be 0ba3 52be a453 ce3e
00000230: ad2b 84be ef27 883d bcfc e1bd b436 e8be
00000240: 7f14 8dbe 761d c33c e1a4 113e 784e 83bc
00000250: 038f 41be 4d2c a13e f410 623e 872b dc3e
00000260: f800 c6bd ab52 34be e960 b0bd 7315 b6bc
00000270: 471d 0e3e 49fb 853e f131 97ba d667 e83d
00000280: 5e5b 923d c2fb 013e 927f 473e eb64 c6be
00000290: 1072 a9bd 858b 193e 6321 f9bc d450 e43d
000002a0: 9587 093e e495 58be 5851 00be 3099 41be
000002b0: 606f 0cbe 062d 91bd 5f30 efbd 6c2a 6f3b
000002c0: 02c1 913e cd15 4a3e 0b21 823d 740d d9be
000002d0: eaff 5d3d 2d8c dd3d b15e e73c 9915 87be
000002e0: 7f2a cf3c db70 b4bd 5bcb cabc 86fd 94bc
000002f0: a7af 9d3d fc62 713e 77f4 48be acca 9cbe
00000300: 0a2a c6bd 7454 303e f6e1 cabe 6a2d f7b8
00000310: 0648 62bd e7fa 42be 5090 b63c 1a4c 7a3d
00000320: 9fad 533e 8619 2a3e f0e5 083e b238 3ebe
00000330: e402 33be b4ea f3bd 0a26 40bd b968 343d
00000340: 628b f53d 4193 1b3d ecef 403e cc4a c7bd
00000350: 8937 463b 5dd7 833d fb59 a73d 7e8e 6ebe
00000360: cd85 3bbd 2fe8 0cbe 7a06 a0be 8a98 50bd
00000370: 9f63 bdbd 3d72 eebe cfd8 563e f609 0dbf
00000380: dc34 773e a5b2 8c3e ae57 c33d 24cc 0cbe
00000390: 01b9 a73d 045f cc3b c527 8abc cf3c 813e
000003a0: fe3d da3b 663e 733d 959e 88bd 0e4b 16be
000003b0: 7a8c 6abd 3b6b 95be 911c 863e b254 fabd
000003c0: 35e2 113e 0366 c23e eaf0 b33e 9a3d d5bd
000003d0: 8efe 373e 6d9b 81be c7b6 303e 7b53 dc3d
000003e0: 1fc5 29be 295a 0c3f 792e 12bd 6a27 69bd
000003f0: d183 513e a705 77be 61fe 12bd d399 083e
-0.030888194 0.10526299 0.085283294 0.0442666 0.08616658 -0.18761925 -0.15515298 -0.16401751
0.16373599 0.13515939 -0.11051015 -0.14987813 -0.10888783 0.11933442 -0.29041588 -0.1634236
-0.0020664565 -0.2297321 -0.24994658 -0.02674655 -0.18385217 -0.35197285 -0.23463534 0.05025037
0.2507908 0.13171878 -0.059100814 -0.49108472 -0.42461848 -0.41610318 0.23060977 -0.0145010315
0.08834806 0.32444605 -0.12334103 0.0051257666 0.17990701 -0.15839633 0.31620312 -0.1985153
0.07159639 0.10216288 -0.15861607 -0.1878614 -0.19559088 -0.2440655 0.24185178 0.06867104
0.13940649 -0.046881493 0.23997241 -0.047996856 0.007999481 -0.0038791643 0.37005675 0.24939343
-0.17326914 0.3586533 0.25367188 0.14881961 -0.20847589 0.059536073 0.009915303 -0.071527064
0.22488908 0.029116483 0.37119305 -0.12876369 -0.07459197 0.11972749 -0.08212145 0.12830423
0.12848566 0.08710635 -0.030137962 -0.06111743 0.13909443 -0.28219223 -0.06836443 0.15645991
-0.079296164 0.049355023 0.31638905 -0.07499801 0.069255345 0.15494175 -0.17622083 0.09703309
-0.038140405 0.35814607 -0.033029206 0.07377771 0.096937485 0.14714214 -0.247949 0.19035316
-0.061620835 0.21586141 0.2232502 -0.050083473 0.16837808 0.08365143 -0.013759336 -0.0005561027
-0.29430896 0.36347848 0.16668302 -0.1390391 -0.31459066 -0.050098293 -0.33017078 -0.028279647
0.21196128 -0.25757897 -0.4163219 0.042640023 0.21560179 0.6035822 -0.46303254 0.20787361
0.086171605 0.15056568 -0.26119706 -0.08801385 -0.51974833 0.21389864 -0.3001056 -0.070260964
-0.5273041 -0.2473117 -0.17908037 -0.3011313 -0.16549045 -0.06861417 -0.14271764 0.29330915
-0.4666694 -0.326825 -0.20570008 0.40298188 -0.25814572 0.06648242 -0.110345334 -0.45354235
-0.275547 0.023817759 0.14223053 -0.016028628 -0.18902211 0.3147911 0.2207678 0.4300196
-0.096681535 -0.1760966 -0.08612234 -0.022227025 0.13878356 0.26168278 -0.001153527 0.1134793
0.07146333 0.12693694 0.19482258 -0.3874887 -0.08273709 0.14994629 -0.030411428 0.11148229
0.13430627 -0.21150929 -0.1253103 -0.18906093 -0.13714361 -0.07088666 -0.11679148 0.0036493791
0.28467566 0.19734879 0.06353959 -0.42393076 0.054199137 0.10817752 0.028243395 -0.26383665
0.025288818 -0.08810588 -0.02475517 -0.018187296 0.07699519 0.23572916 -0.19624506 -0.30623376
-0.09675987 0.17219716 -0.3962552 -0.00011786337 -0.05524447 -0.19041024 0.02228561 0.061107732
0.206717 0.16611299 0.13368964 -0.18576315 -0.17481571 -0.119100004 -0.046911277 0.044045184
0.11989476 0.03798223 0.18841523 -0.09731063 0.0030245504 0.06437562 0.08171459 -0.23296544
-0.0457819 -0.13760446 -0.3125494 -0.050926723 -0.09247517 -0.46571532 0.20981143 -0.55093324
0.24141258 0.27480045 0.09538208 -0.13749748 0.081895836 0.0062369127 -0.016864667 0.25241706
0.006660222 0.05938568 -0.06670872 -0.14677069 -0.057262875 -0.29183373 0.2619367 -0.122231856
0.14246447 0.37968454 0.3514474 -0.1041214 0.17968199 -0.25313893 0.17257224 0.1075811
-0.16579102 0.54825073 -0.03568885 -0.056922354 0.2046044 -0.2412325 -0.035887126 0.1333993

arith.constant6 f4 [7]
00000000: 2a4b 893e 81b0 60be 386c 95bc bfba 17bc
00000010: 132d bcbe 912f 9b3e c433 6dbe
0.26815158 -0.21942331 -0.01824008 -0.009260832 -0.3675314 0.30309728 -0.23164278

arith.constant7 f4 [32]
00000000: 9812 a7bd a208 6bbe 72de 883d 685f 27bc
00000010: 7e4b 9c3b c864 983d 5399 b7bd 323b 663d
00000020: f52f 28be 3c0d 3e3a 623b 8f3d b596 9b3d
00000030: 8087 0dbe 88a1 a4bd 2a60 f0bd 094e d33c
00000040: 5686 7d3c ed1c c33d 670e 653d 3942 df3d
00000050: 1c26 463d 422e c7bd a215 83bd d796 a53d
00000060: f010 c03b 6f81 33be 7e3d 00bd 00fd 4e3d
00000070: 7b9e a8bd f5db e8bd deaa 02be 9e7f 63bd
-0.08157843 -0.22952512 0.06683053 -0.010215618 0.0047697416 0.074410975 -0.08964791 0.056208797
-0.16424544 0.0007249897 0.06993748 0.075971045 -0.1382122 -0.08038622 -0.11737092 0.025794046
0.015473923 0.095270015 0.05592194 0.10901303 0.048376188 -0.0972562 -0.064006105 0.08085411
0.005861394 -0.17529844 -0.031308644 0.05053425 -0.08233353 -0.113700785 -0.12760493 -0.055541627

sequential_3_1/conv2d_9_1/convolution f4 [16, 3, 1, 1]
00000000: 76a4 cb3e b1e6 94be 46a9 473e 6b01 d23e
00000010: 01a3 4b3e c2dc 453e fd44 7e3e dbd2 3abe
00000020: 0e7f bfbe 1ffb f1be 2517 b63d 174e 8c3e
00000030: 230f 433e 9331 d33e 9d23 4a3d 54ef fabe
00000040: 92d7 473d 6dcb b23e 3a3c 763d 5b04 273e
00000050: ec5c 11be d870 2d3e 36fb 05be a80e b4bc
00000060: de19 643e 232c 3bbd b6de ad3e adcb 00be
00000070: 28f1 7cbd 763b 86be 6cc0 2ebf 7e20 23be
00000080: 8c09 d63e e5a0 9f3e 64a6 4a3e 074f 03be
00000090: 2867 8d3d f177 53bf 8c60 3d3e d9a8 cc3e
000000a0: 7eb0 4a3d 3ac3 b1be c1d0 f73d 9801 4b3e
000000b0: b946 c43e c081 eb3c 45f5 0d3e bee7 8ebe
0.3977391 -0.29082254 0.19498166 0.41016707 0.198864 0.19322494 0.24831004 -0.18244497
-0.37401623 -0.47261903 0.08891133 0.27403328 0.19048743 0.4124876 0.04935037 -0.49010718
0.04878957 0.34920827 0.06011603 0.16310255 -0.14195603 0.16937578 -0.1308411 -0.021979645
0.22275493 -0.04569639 0.33958977 -0.12577696 -0.061753422 -0.2621724 -0.6826236 -0.15930364
0.4180416 0.3117744 0.19790035 -0.12823115 0.06904441 -0.8260489 0.18493861 0.3997257
0.049484722 -0.3471926 0.121003635 0.19824827 0.38335207 0.028748393 0.13863094 -0.2791118

sequential_3_1/conv2d_9_1/Relu;sequential_3_1/conv2d_9_1/BiasAdd;sequential_3_1/conv2d_9_1/convolution; f4 [16]
00000000: 1a7e 36bc 8aee 09bb 45df d8be b66b 2bbc
00000010: f97d 33bc a71b 3abc 60e9 df3e 9a9f 8d3e
00000020: d85d 0fbc 0000 0000 0a43 46bc 5fbc 5e3e
00000030: 9089 0d3f bd42 e33d 46f6 dbbb 33b0 e63e
-0.011138463 -0.0021046721 -0.4235784 -0.010462692 -0.010955327 -0.011359132 0.43732738 0.2766083
-0.008750401 0.0 -0.012100944 0.21751545 0.5528803 0.11096714 -0.0067127077 0.45056304
