tensorflow/lite/micro/examples/hello_world/models/stuff_toy_int8.tflite (tflite, 10504 bytes, 5 tensors)

tfl.pseudo_qconst1 i1 [7, 32]
00000000: e24a 558c 8829 f73b 7f11 2034 2242 18d7
00000010: a548 1fc8 24d9 4053 adae e628 143e 50cc
00000020: 922a d4ea cbc2 08ab d2bd 22c2 26c8 1f90
00000030: b90c 1281 0a49 ee26 1fe5 c0bd e722 e1fb
00000040: d0b7 86b9 56a8 1306 f1b8 fb3e d6c5 81b1
00000050: a1af e59a 29ea 381f 4f2b f91c e0a1 e428
00000060: 3bd2 ba1d 3fab 8927 173f 82e5 81f5 bf19
00000070: 4b34 fc36 db61 8240 c209 0dda 91fe 31b5
00000080: 2a33 490b ed23 811a 9a2b 12bc d60d 2a17
00000090: d6c5 bc27 81d4 b7f0 9f01 3ef8 3100 d118
000000a0: e2c9 a038 e3af b2a7 e9b6 a2cd d03d cb26
000000b0: 9c31 1e81 b9c4 b541 2c38 9d9f acd6 c1bb
000000c0: 3831 d519 f022 fa99 d625 acc4 18c7 28a2
000000d0: 1cd2 81db 02e2 19ca cb33 ebda 33ee 292c
-30 74 85 -116 -120 41 -9 59
127 17 32 52 34 66 24 -41
-91 72 31 -56 36 -39 64 83
-83 -82 -26 40 20 62 80 -52
-110 42 -44 -22 -53 -62 8 -85
-46 -67 34 -62 38 -56 31 -112
-71 12 18 -127 10 73 -18 38
31 -27 -64 -67 -25 34 -31 -5
-48 -73 -122 -71 86 -88 19 6
-15 -72 -5 62 -42 -59 -127 -79
-95 -81 -27 -102 41 -22 56 31
79 43 -7 28 -32 -95 -28 40
59 -46 -70 29 63 -85 -119 39
23 63 -126 -27 -127 -11 -65 25
75 52 -4 54 -37 97 -126 64
-62 9 13 -38 -111 -2 49 -75
42 51 73 11 -19 35 -127 26
-102 43 18 -68 -42 13 42 23
-42 -59 -68 39 -127 -44 -73 -16
-97 1 62 -8 49 0 -47 24
-30 -55 -96 56 -29 -81 -78 -89
-23 -74 -94 -51 -48 61 -53 38
-100 49 30 -127 -71 -60 -75 65
44 56 -99 -97 -84 -42 -63 -69
56 49 -43 25 -16 34 -6 -103
-42 37 -84 -60 24 -57 40 -94
28 -46 -127 -37 2 -30 25 -54
-53 51 -21 -38 51 -18 41 44

tfl.pseudo_qconst3 i1 [32, 64]
00000000: f81b 160b 16cf d8d6 2a23 e3d9 e41f b5d6
00000010: ffc5 bff9 d0a5 c30d 4122 f181 9294 3cfc
00000020: 1754 e001 2fd7 52cd 131a d7cf cdc1 3f12
00000030: 24f4 3ef4 02ff 6040 d35d 4226 ca0f 03ee
00000040: 2f06 4ee5 f019 ef1b 1b12 faf3 1dc5 f221
00000050: ef0a 43f0 0f21 db14 f84b f910 141f cc28
00000060: f32d 2ff5 2312 fd00 c24c 23e3 bef5 bbfa
00000070: 2dca a809 2d7f 9f2c 1220 c9ed 932d c1f1
00000080: 81c4 d5b7 d8ef de47 90b1 ce61 c210 e593
00000090: be06 22fc d24c 3568 e9d6 ebfb 213f 001b
000000a0: 111f 2fa3 ec24 f91b 20cd e2d2 dfef e401
000000b0: 4530 0f9a 0d1a 07c0 06eb fafc 1339 d1b6
000000c0: ea28 a500 f3d4 050e 3026 1fd5 d8e5 f50a
000000d0: 1c09 2bea 010f 13ca f5e0 b8f4 eb95 3081
000000e0: 383f 16e0 1301 fc3a 020e f1de f3bd 3ce4
000000f0: 2158 51e8 29c6 2819 da7e f8f3 2fc8 f81f
-8 27 22 11 22 -49 -40 -42
42 35 -29 -39 -28 31 -75 -42
-1 -59 -65 -7 -48 -91 -61 13
65 34 -15 -127 -110 -108 60 -4
23 84 -32 1 47 -41 82 -51
19 26 -41 -49 -51 -63 63 18
36 -12 62 -12 2 -1 96 64
-45 93 66 38 -54 15 3 -18
47 6 78 -27 -16 25 -17 27
27 18 -6 -13 29 -59 -14 33
-17 10 67 -16 15 33 -37 20
-8 75 -7 16 20 31 -52 40
-13 45 47 -11 35 18 -3 0
-62 76 35 -29 -66 -11 -69 -6
45 -54 -88 9 45 127 -97 44
18 32 -55 -19 -109 45 -63 -15
-127 -60 -43 -73 -40 -17 -34 71
-112 -79 -50 97 -62 16 -27 -109
-66 6 34 -4 -46 76 53 104
-23 -42 -21 -5 33 63 0 27
17 31 47 -93 -20 36 -7 27
32 -51 -30 -46 -33 -17 -28 1
69 48 15 -102 13 26 7 -64
6 -21 -6 -4 19 57 -47 -74
-22 40 -91 0 -13 -44 5 14
48 38 31 -43 -40 -27 -11 10
28 9 43 -22 1 15 19 -54
-11 -32 -72 -12 -21 -107 48 -127
56 63 22 -32 19 1 -4 58
2 14 -15 -34 -13 -67 60 -28
33 88 81 -24 41 -58 40 25
-38 126 -8 -13 47 -56 -8 31

tfl.pseudo_qconst5 i1 [16, 3, 1, 16]
00000000: 37ed 0206 f5d2 9302 d20a f1c9 dd81 3e4a
00000010: 26f6 d6da f709 f80c 0207 123b c7ee bde9
00000020: 3508 f80e 1fe9 35cb f9d4 162a 1415 ca3e
00000030: 2337 e52d dfe9 ce19 0e0c 09af faec 6c15
00000040: 060c 0729 cf24 eeeb b4d4 3df2 3317 ed38
00000050: fc3b e4f4 380d ea13 3bf4 fbe7 1007 8123
00000060: 1831 1828 f82a 35cd e032 81fc 0795 3a1f
00000070: c8e6 0ef0 ecf6 d3e6 e70e 28f0 e1f5 5a01
00000080: fb2c f301 f508 eedc d81a db24 39ea 934c
00000090: 33bb d5f1 42ce e4ce fd26 f1cb b1e8 25c1
000000a0: 0ca9 f632 2026 4c04 20d1 aa01 81e3 3b01
000000b0: 5828 f7d9 0001 398b dc28 1b10 c63b 5801
000000c0: 0eed c1da 0c05 a3d1 06fa 0417 faf2 7f25
000000d0: 3209 1eef cbf0 1e08 06e8 01f3 ddc9 89bc
000000e0: 3129 d9fe 30e5 39ee e340 fe2f 08ee 0eea
000000f0: a3da f3e7 1be0 05fb ede8 0ed0 d060 b2e9
55 -19 2 6 -11 -46 -109 2
-46 10 -15 -55 -35 -127 62 74
38 -10 -42 -38 -9 9 -8 12
2 7 18 59 -57 -18 -67 -23
53 8 -8 14 31 -23 53 -53
-7 -44 22 42 20 21 -54 62
35 55 -27 45 -33 -23 -50 25
14 12 9 -81 -6 -20 108 21
6 12 7 41 -49 36 -18 -21
-76 -44 61 -14 51 23 -19 56
-4 59 -28 -12 56 13 -22 19
59 -12 -5 -25 16 7 -127 35
24 49 24 40 -8 42 53 -51
-32 50 -127 -4 7 -107 58 31
-56 -26 14 -16 -20 -10 -45 -26
-25 14 40 -16 -31 -11 90 1
-5 44 -13 1 -11 8 -18 -36
-40 26 -37 36 57 -22 -109 76
51 -69 -43 -15 66 -50 -28 -50
-3 38 -15 -53 -79 -24 37 -63
12 -87 -10 50 32 38 76 4
32 -47 -86 1 -127 -29 59 1
88 40 -9 -39 0 1 57 -117
-36 40 27 16 -58 59 88 1
14 -19 -63 -38 12 5 -93 -47
6 -6 4 23 -6 -14 127 37
50 9 30 -17 -53 -16 30 8
6 -24 1 -13 -35 -55 -119 -68
49 41 -39 -2 48 -27 57 -18
-29 64 -2 47 8 -18 14 -22
-93 -38 -13 -25 27 -32 5 -5
-19 -24 14 -48 -48 96 -78 -23

tfl.pseudo_qconst7 i1 [16, 1, 2, 16]
00000000: 81c2 0509 a45a b204 cf0f 2d9d f4f1 36cf
00000010: 1ff0 ccf8 33e2 b931 5ef1 aa4d c399 5529
00000020: a8d2 4f7f 1651 9ea8 3ce1 7722 c931 0ce3
00000030: 8e15 211b e9e6 e437 e824 a617 fc42 fa05
00000040: ff2e 4bfd da0c 175c d62f b907 417a bc51
00000050: 1fd0 e6b0 ba81 46b5 e418 8220 1ec4 fb64
00000060: 1da5 ec70 12b7 ace4 a94e 4709 0172 05da
00000070: 96c6 8381 ce88 89c7 7749 e03c dde5 03c8
00000080: 2ba1 a6e9 faab 3012 ddeb 812f d5ce d427
00000090: 5538 f457 66d7 340e 0301 174b 9db2 54f9
000000a0: 85d4 b6eb 8120 49db f173 160e 692d a50b
000000b0: 6efc b76c 0d95 ea1b c5d1 6f6b 7f66 c666
000000c0: 3b3e e053 33dd db36 08b2 d83a f1ee 2bd9
000000d0: 5a60 81aa 29e6 e42b cb40 9453 07ff 3ca9
000000e0: 1506 9945 d0f2 36ad ebd0 2a09 7f04 e615
000000f0: ddb5 b233 fb2f 0383 cd10 e464 5aed 0f2b
-127 -62 5 9 -92 90 -78 4
-49 15 45 -99 -12 -15 54 -49
31 -16 -52 -8 51 -30 -71 49
94 -15 -86 77 -61 -103 85 41
-88 -46 79 127 22 81 -98 -88
60 -31 119 34 -55 49 12 -29
-114 21 33 27 -23 -26 -28 55
-24 36 -90 23 -4 66 -6 5
-1 46 75 -3 -38 12 23 92
-42 47 -71 7 65 122 -68 81
31 -48 -26 -80 -70 -127 70 -75
-28 24 -126 32 30 -60 -5 100
29 -91 -20 112 18 -73 -84 -28
-87 78 71 9 1 114 5 -38
-106 -58 -125 -127 -50 -120 -119 -57
119 73 -32 60 -35 -27 3 -56
43 -95 -90 -23 -6 -85 48 18
-35 -21 -127 47 -43 -50 -44 39
85 56 -12 87 102 -41 52 14
3 1 23 75 -99 -78 84 -7
-123 -44 -74 -21 -127 32 73 -37
-15 115 22 14 105 45 -91 11
110 -4 -73 108 13 -107 -22 27
-59 -47 111 107 127 102 -58 102
59 62 -32 83 51 -35 -37 54
8 -78 -40 58 -15 -18 43 -39
90 96 -127 -86 41 -26 -28 43
-53 64 -108 83 7 -1 60 -87
21 6 -103 69 -48 -14 54 -83
-21 -48 42 9 127 4 -26 21
-35 -75 -78 51 -5 47 3 -125
-51 16 -28 100 90 -19 15 43

tfl.pseudo_qconst9 i1 [16, 3, 1, 1]
00000000: 7fa3 3e7f 3e3c 54c2 8181 184a 3b7f 0f81
00000010: 0d5a 2f7f 917f 9ef0 53ef 7fc3 e281 81e2
00000020: 4e7f 51cc 0b81 1c7f 1092 2842 7f0d 3f81
127 -93 62 127 62 60 84 -62
-127 -127 24 74 59 127 15 -127
13 90 47 127 -111 127 -98 -16
83 -17 127 -61 -30 -127 -127 -30
78 127 81 -52 11 -127 28 127
16 -110 40 66 127 13 63 -127
